results/model.pth (torch_old, 88660 bytes, 8 tensors)

conv1.weight f4 [10, 1, 5, 5]
00000000: 34a4 f73d 71a4 02be d81a 3dbe 617e cfbd
00000010: 84c1 9cbe 69da 4a3e b4aa 643c 47ca 933d
00000020: c9f0 a9ba 4a3d 3bbd ecc1 293e 6908 3e3e
00000030: 8067 7f3e a93f d03d 0411 be3d 5846 2f39
00000040: fc14 053e c921 ef3d 46a9 923e 3c7b 263e
00000050: 138b 2ebe 7add 60be 1e82 23be 4851 28be
00000060: 30aa 93bd 6ca6 ae3d bd3d 943e 5a08 ee3d
00000070: 6760 c6be 04f3 e1bd d15b 3c3e dc99 c83e
00000080: c507 e13d a1b2 c0be 030e b9be d94e d03d
00000090: 7ac2 d43e 210d 89bd 8f1e d3bd 9651 7ebe
000000a0: b4f3 b23e f2f9 d93d 4256 3d3e b2e7 86bd
000000b0: 6fd9 21be dd3f 613e 174e 5f3d 0731 2c3e
000000c0: dda8 913b 5d13 ae3b df40 a9be 962b 40be
000000d0: a680 013e 4b5a ca3d a41b a83e 6e26 293d
000000e0: e8a0 cfbc 03f2 0d3d da1d ae3e e079 223e
000000f0: 2b29 14be 3d4e 5b3e b42f aa3e 1520 ad3e
00000100: e2da 13be 1817 2a3d 65ba fb3d d6a0 2b3e
00000110: 6331 07be 9e84 82be 4cfb 243e 3faf d43c
00000120: aab4 ed3d dfe9 77bd d71d 65bd c613 013e
00000130: c9b9 463e 451e 653e 7712 ccbd 8b0e 243e
00000140: ac8b 22be 45e7 f9bd 5afb 343d 5cae 543b
00000150: 8b31 2d3e 21af 0dbe c136 4bbe 9097 b63d
00000160: 2c22 7ebd 70d8 f43d da66 783d 0d45 46be
00000170: a6e9 7abd 8725 d3bc c2c5 39be ec4b 87bd
00000180: 3131 583d 7e4d 40bd 476a 1bbe db16 dcbd
00000190: dc82 963e 92b0 3c3d 5a27 403e 5b53 cf3d
000001a0: 20cb 2ebe a1ad 9cbd 345b cd3e fed5 5e3e
000001b0: e59b 533e c30e a33d ea74 453e 5742 003f
000001c0: 621d f83e 0999 a1bc 5790 0c3e 7dd7 5e3e
000001d0: 7d21 bf3e fde6 923e ea17 dcbc 331c 26bb
000001e0: 22df 48be 4046 f13c 553d 673e 2346 61bd
000001f0: fd83 683e b8f2 1ebe 1447 8dbe 1470 babd
00000200: ee19 813e c127 c53e cc90 c1bd 19cf b13d
00000210: 3240 943e 93dd c33e c3eb 973e 543c 633e
00000220: 8efb 3d3e 0904 063e 1b3b 253c ca05 f0bd
00000230: b890 86bd a637 febc 21ea e9bd 6aa9 1e3e
00000240: b710 e73d 8639 95bd 6864 e03c 1222 6b3d
00000250: 91a4 323e 41e6 373e 67ad bbbd 6c9f 0e3e
00000260: 06eb 5abd 835f a83b 49ed 3cbe e724 3dbe
00000270: 35b5 4bbe e9eb f2bd 034d 1e3e 33b0 96bd
00000280: 160c 44be 1aec 343d dae3 b23d 3da3 1d3e
00000290: 6ac1 00be 9efc 623d 3654 2fbd 8dd3 823c
000002a0: cf91 02be e3df aabd 7bcd c3ba aab8 173e
000002b0: 959f df3d 1723 de3d 105f 883e d1bd 033e
000002c0: 63d5 be3d c440 11bc f737 38be c39a ef3d
000002d0: 32bb 0bbe f3ee d0bd da65 81be 82f7 40be
000002e0: b62a 8cbe 57e0 133e b201 4bbe 01ad 59be
000002f0: f885 ecbd 1f20 3ebe 1ea0 203e 1633 6d3d
00000300: 656f 183d 5b0c b93d 3751 733e a12f cbbc
00000310: 1f37 a73e 7cee ca3e b78b c33e f733 9437
00000320: ebea 593d f5d8 20be 78f4 473e 67c2 99bc
00000330: 92af 403e 07a8 1e3c 2abb 5e3a 1421 5a3d
00000340: 9be7 1a3e 947e 693e fcde 6c3d 08d2 b73d
00000350: 8f76 fcbd b778 8c3e 864c b43e 2430 233e
00000360: 5834 fc3d 39ff 26be ec18 b9bc 396d a23e
00000370: 8d6f 85be 21df 7c3d 50c8 81be 145c 48be
00000380: 3383 033e 133a 97bd 3a35 433d d588 a23e
00000390: 7550 b83e 0c8f bb3e 8a81 16bd ad38 17be
000003a0: ed8e a23e b1f0 113e 5dbc ca3d 51ab 24bd
000003b0: 81cd 64be 7d80 023e 2d4b 413e 6f8f 87bd
000003c0: e7f5 91be 138c 12be 0bf9 003c f665 5abc
000003d0: 010c c4bd 7cbe e5bd 5cb2 a3be f3a8 7dbe
000003e0: 1d01 3cbe a825 ed3d
0.12091866 -0.12758042 -0.18467271 -0.10131527 -0.3061639 0.1980988 0.013956714 0.07216316
-0.0012965436 -0.045712747 0.16577882 0.18557896 0.24941826 0.10168392 0.09280589 0.00016715506
0.12996286 0.11676366 0.2864477 0.16257948 -0.1704524 -0.21959487 -0.15967605 -0.16437256
-0.07210195 0.08527836 0.28953353 0.11622687 -0.38745424 -0.1103268 0.183944 0.39179885
0.1098781 -0.37636283 -0.36143503 0.10171289 0.41554624 -0.06691957 -0.10308563 -0.2483581
0.34951556 0.106433764 0.18489936 -0.06587161 -0.158056 0.21997018 0.05451783 0.16815577
0.004445179 0.005312367 -0.33057305 -0.18766627 0.12646732 0.09880503 0.32833588 0.041296415
-0.02534528 0.03465463 0.3400715 0.15866804 -0.1446883 0.21416564 0.3323952 0.3381354
-0.14438966 0.04152593 0.12291411 0.16760573 -0.13202433 -0.25491804 0.16111487 0.02596247
0.116067246 -0.06052577 -0.05593666 0.12605199 0.19406809 0.22374828 -0.099644594 0.16021173
-0.15873593 -0.12202314 0.04418502 0.003245256 0.1691343 -0.13836338 -0.19845106 0.08915627
-0.062044308 0.11955345 0.060644962 -0.19362278 -0.06125798 -0.02577473 -0.18141845 -0.06606278
0.052781288 -0.046948902 -0.1517726 -0.10746547 0.29396713 0.046066828 0.18765011 0.10123321
-0.17069674 -0.076503046 0.40108645 0.21761319 0.20664938 0.079618 0.1928288 0.50101227
0.48459917 -0.019726293 0.13726936 0.2176189 0.37330237 0.28691855 -0.026866872 -0.0025346398
-0.19616368 0.029452443 0.2258199 -0.05499853 0.227066 -0.15522277 -0.2759329 -0.091034085
0.25215095 0.38506892 -0.09451446 0.08682079 0.28955227 0.38254985 0.2967206 0.22190982
0.18552992 0.13087477 0.010084893 -0.11719854 -0.06570572 -0.031032395 -0.1142161 0.15494314
0.11282485 -0.07286362 0.027391627 0.05740554 0.1744559 0.17958929 -0.09163933 0.13928002
-0.053446792 0.005138339 -0.18449892 -0.18471108 -0.19893344 -0.118614025 0.15459065 -0.07357826
-0.19145235 0.044170476 0.087348655 0.15394302 -0.12573782 0.055416696 -0.04280492 0.015970016
-0.12750934 -0.08343484 -0.0014938557 0.14816537 0.1091911 0.108465366 0.26635027 0.12865378
0.09318044 -0.008865539 -0.17990099 0.1169944 -0.13645628 -0.10201826 -0.2527302 -0.18844417
-0.27376336 0.14441048 -0.19824865 -0.21257402 -0.1154899 -0.1856694 0.1568608 0.057910047
0.03721561 0.0903556 0.2376145 -0.024802985 0.32659242 0.39635074 0.3819253 1.7667173e-05
0.05320255 -0.15707763 0.19526851 -0.018769456 0.18816975 0.0096836155 0.00084965175 0.053254202
0.15127413 0.22802192 0.057829842 0.08975607 -0.12327301 0.27435848 0.35214633 0.15936333
0.12314671 -0.16308297 -0.022594891 0.31723955 -0.2606167 0.06173623 -0.2534814 -0.19566375
0.12843017 -0.07384124 0.047658183 0.3174502 0.35998884 0.36632574 -0.03674463 -0.14767714
0.3174967 0.14251973 0.09899209 -0.040202443 -0.22344019 0.12744327 0.18876334 -0.06619155
-0.2850792 -0.14311247 0.0078718765 -0.013329973 -0.09572602 -0.11217973 -0.31972015 -0.2477148
-0.183598 0.11579448

conv1.bias f4 [10]
00000000: e2bb 303e 5f7d 96bd 9e65 403d 457f e83d
00000010: 81d8 593e 8472 183c 425e 033e 24d2 f93d
00000020: 911b 563d 05d0 5b3d
0.17259172 -0.073481314 0.04697191 0.113524 0.21273996 0.009304646 0.12828925 0.12198284
0.052272383 0.05366518

conv2.weight f4 [20, 10, 5, 5]
00000000: 3c8d 333d 02b9 da3c 6eb6 adbd 7b24 f63c
00000010: 7796 033d a4e8 78bd c9b8 c43a 5c26 ddbd
00000020: af03 d83c da6b cebc 7e4d 86bc 9093 d2bc
00000030: 15f8 f9bc 29c8 173d 5776 d4bc 7622 8cbd
00000040: 62e2 9fbd d602 843c 7859 7c3c 6fdc a93c
00000050: 72e2 fdbc 5781 cf3c ab27 a03d 175d 1f3d
00000060: 924d bebc 0712 e1bc 5981 d4bd 5da7 9bbc
00000070: 7ecf 51bd d2a0 ed3c 9b49 e7bc e769 f6bd
00000080: 140b 65ba adcf 7a3c 906b 943c 988f 8cbd
00000090: 3595 6cbd a12a 6c3d c4d1 e03b 4047 f2bc
000000a0: 40a0 93bc fed2 ec3c 86c3 da3d 5b52 16bc
000000b0: a716 90bc 57a8 9abb 9c4d f03c bbf7 9f3d
000000c0: 1a85 eebc 5c20 133d 1cbc 08bc c4c4 5fbd
000000d0: fd3f 63bd 4d28 383c 1b87 b53d 2ce4 bbbd
000000e0: fc99 43bc 096e ec3d 6eec fa3d c272 0a3d
000000f0: 92de 1cbd 6a7d 463d a617 973d 5b60 b4bb
00000100: 4490 4aba ca4f 1cbd 393c 1f39 f78e 7fbc
00000110: d2da 9abd 3d8a 47bd 65e3 343d dcd7 91bc
00000120: 0fb7 ddbc a178 53bd 70e8 34bd a0ee 6cbc
00000130: 654e 51bd 2601 4cbd b71c 58b9 9c7a fdbb
00000140: 4452 30bd 0bfb 88bd d4fb 7dbd 96c2 193d
00000150: 7d17 b1bc f798 f2bc c475 03bd 6ebd 4ebd
00000160: e5e3 abbd ed5e 36bd 360f f73c aa4f 6f3c
00000170: cd51 e2bc b64c 12bd e224 0f3d 2641 093d
00000180: 96df 823d ad25 2a3d 7a56 333d 1075 2b3a
00000190: 56ce f3bc 7b5c eabd e46c 95bc f309 8b3b
000001a0: 7b46 e03d 7cd5 75bd e98a 0fbe e3cd 98bc
000001b0: 9994 a23d 57ea 543c e54b 12be 42d5 c9bb
000001c0: 2b4f 9e3d e641 8bb9 d5d4 c6bc 7401 7dbd
000001d0: 1819 8fbc a03d d03d a13b 583c 7a00 1ebd
000001e0: 7d05 d13b 9fb8 98bd d376 dbbb c620 c2bc
000001f0: 6910 8fbd 6c3b 783c 3935 e4bb a91c 9a3c
00000200: e033 f93b a3d7 45bc cd11 03bd afca 4c3d
00000210: a722 3e3d 547d 493d 1997 913d 638b 87bc
00000220: c96a cc3d 3733 b63d 02d6 ae3d ed7b 9fbc
00000230: 21bd 35bd a9ef be3d 8796 843c 27a8 85bd
00000240: d6d3 8fbd 618a 7cbd 5885 20bd 893b 78bd
00000250: fd76 183d 9c40 70bd 7605 babc 95e6 9d3c
00000260: e8da 153d 01a9 fdbc 0824 ee3c 3a31 923c
00000270: 9647 81bd f815 703d d182 0bbd 0151 29bd
00000280: fb0b 7bbd a26e 743d 5e07 db3c 1589 313d
00000290: 6321 42bc ace6 cb3c 47c2 59bc 9c9c 24bd
000002a0: 7042 0abb 8ca1 cdbc 0ac6 99bb 31ad f5bc
000002b0: b7d8 b63b f170 9b3c 0079 0d3b 9cfd 6abd
000002c0: 50cd 013d 4847 a4bc 4ec5 323c d7e9 433d
000002d0: 302f a4bd 7caf 493d 9971 d6bd 2b36 a2bc
000002e0: a86e 4fbb dcf4 6bbc add8 92bd 4016 debb
000002f0: 8494 89bb 7e61 c7bc cac0 e23a 0f4b 92bc
00000300: 4ab3 9f3d 9418 503d 4c99 a73d 8c57 103d
00000310: ee59 5abd ad04 c9bc ec20 303d 348c 1ebd
00000320: 0ff1 3cbc dbb6 98bd 0891 783c 8666 b23c
00000330: c9a0 6bbc 91db 85bb fc4a 50bd f964 f4bc
00000340: 580c 873c c5e0 0abd c2bc 94bc 40e8 91bb
00000350: 55a4 6b3d 2330 083d a79b a53c 3bdd 323d
00000360: 6f64 40bd 1837 033d 2d03 acba 517e 9abd
00000370: 66fd c43b 94dd 31bd d5f9 d13c 19ff 3f3b
00000380: 1b81 3e3c 7029 edbb c9be a3bd c53a 7e3c
00000390: 5d83 a5bc 7d6d 55bc 07b5 743b 079a 89bd
000003a0: 46b4 bebb 3122 9dbd 9a40 9cba 49b7 84bb
000003b0: a292 5f3d 2d75 54bc 9c8e 92bd 09e9 1ebc
000003c0: 5eef abbd 8af4 6fbc 270a 1cbd 3f2d fabc
000003d0: aa64 0dbd 92b1 b1bd 26c4 eabc b458 cdbb
000003e0: 111d b73d 59d7 e4bc 7115 48bd d7d2 433c
000003f0: c160 70bd 471a f23c 8526 c93c a3f1 9dbd
0.043835863 0.026699547 -0.08482061 0.030046692 0.032125916 -0.06076874 0.0015008684 -0.10798332
0.026368944 -0.025197912 -0.016394373 -0.025705129 -0.030513803 0.037056122 -0.025935335 -0.068425104
-0.07806851 0.016114634 0.01540219 0.020734994 -0.030991767 0.025330229 0.07820066 0.038907137
-0.023230348 -0.027474416 -0.103762336 -0.019000703 -0.05122327 0.02900735 -0.02823334 -0.12031918
-0.00087373075 0.015308303 0.018117696 -0.06863326 -0.057759482 0.05765784 0.0068609435 -0.02957499
-0.01802075 0.028909203 0.106818244 -0.0091749085 -0.017588926 -0.0047197747 0.029333882 0.07810923
-0.029116202 0.035919532 -0.00834563 -0.05463101 -0.055480946 0.011240077 0.0886366 -0.0917438
-0.011938568 0.11544425 0.12252127 0.033800848 -0.038298197 0.048459448 0.073775575 -0.0055046505
-0.0007727186 -0.03816203 0.00015185856 -0.01559805 -0.07561268 -0.04871582 0.044162173 -0.017803125
-0.027064828 -0.051628713 -0.044166982 -0.0144611895 -0.051100153 -0.049805783 -0.00020610062 -0.0077355634
-0.043047205 -0.06688508 -0.06200774 0.037539087 -0.021617645 -0.029613955 -0.032094732 -0.050473623
-0.08393077 -0.044524122 0.03015862 0.014606396 -0.027626896 -0.03571769 0.034947284 0.033509396
0.06390302 0.041539837 0.043783642 0.0006540576 -0.029761475 -0.114434205 -0.0182404 0.0042431294
0.10950943 -0.060018048 -0.14017834 -0.018652862 0.07938499 0.012995324 -0.14286764 -0.0061594555
0.07729944 -0.00026561244 -0.024271408 -0.061768964 -0.01746802 0.10168004 0.01319781 -0.038574673
0.006378828 -0.07457089 -0.0066975146 -0.023697268 -0.06985552 0.015150886 -0.0069643524 0.018812494
0.007605061 -0.012075338 -0.031999398 0.04999798 0.046419766 0.049191788 0.07108898 -0.016545957
0.09981305 0.08896487 0.085369125 -0.019468272 -0.04436982 0.09323055 0.016185058 -0.06526213
-0.070228264 -0.061655406 -0.039189667 -0.060603652 0.03722285 -0.058655366 -0.022707682 0.01927499
0.03658572 -0.030964376 0.029069915 0.017845739 -0.06312482 0.0586147 -0.034060303 -0.041337017
-0.061290722 0.05967582 0.026736911 0.043343622 -0.01184878 0.024890266 -0.013290948 -0.040188417
-0.0021096729 -0.025101446 -0.0046927975 -0.02998981 0.0055800336 0.018974753 0.0021587014 -0.057370767
0.031689942 -0.02005352 0.010911299 0.04783043 -0.08016813 0.04923962 -0.10470886 -0.01980122
-0.003165165 -0.014401641 -0.07170234 -0.0067775548 -0.0041986126 -0.02433848 0.0017299887 -0.017858056
0.077978685 0.05080469 0.08183536 0.03523974 -0.05330842 -0.024538362 0.043000147 -0.038707927
-0.011532082 -0.07456752 0.015171297 0.021777403 -0.014381596 -0.0040850122 -0.05085276 -0.029833304
0.016485378 -0.033905763 -0.018156413 -0.004452735 0.057529766 0.03324903 0.020215822 0.043668013
-0.04697078 0.032034963 -0.0013123505 -0.07543624 0.0060116528 -0.043424204 0.025631825 0.0029296337
0.011627461 -0.0072376058 -0.07995374 0.015516941 -0.02020424 -0.013026592 0.0037339346 -0.067188315
-0.00581983 -0.07672537 -0.0011921108 -0.0040501696 0.0545832 -0.01296739 -0.07156107 -0.009699115
-0.08395265 -0.014645705 -0.03809562 -0.030539153 -0.03451983 -0.08676447 -0.028657984 -0.0062666778
0.08941091 -0.027934717 -0.048848573 0.011952124 -0.05868602 0.029553546 0.0245545 -0.07712104

conv2.bias f4 [20]
00000000: 9e5a 963c 32aa a9bc 2686 123d 4701 95bc
00000010: 01e5 71bc e5ab 02bd 170f 35bd 30ec 7fbc
00000020: c6c3 84bd 71d3 9dbc 3d4d ea3b 816d 72bd
00000030: 6929 5ebd a11f 8d3d bdc2 28bd 345c 86bd
00000040: 8a20 c2ba 6170 93bd 494d 51bd 2300 463c
0.018353757 -0.020711038 0.035772465 -0.018189086 -0.014764071 -0.031902213 -0.044203844 -0.015620276
-0.06482653 -0.019265862 0.007150321 -0.059186462 -0.05423871 0.06890798 -0.041201342 -0.06560555
-0.0014810723 -0.07199169 -0.051099095 0.0120849935

fc1.weight f4 [50, 320]
00000000: 74ca b7bd aa8a 2abd bdb7 abba 4486 37bd
00000010: dedc 4e3d c483 2d3b 79c9 fa3c e245 83bc
00000020: ae7c c8bc 7824 223d d693 293d e9d1 553d
00000030: 2d71 21bb 9f59 33bd 0d65 fb3c aed4 d93c
00000040: 71b7 ffbc 1813 283d b34e dcbb 6290 7d3c
00000050: 411d 203d 2c37 6ebb e936 ed3c 4a15 bdbc
00000060: 9e2a 313c 6514 5ebd 0876 cd3c 0a98 343b
00000070: 9e1a 3ebd 1636 63bd 0ad6 303c 8889 913c
00000080: a5cc 2cbd 9734 63bc 47d7 2fbd b129 62bd
00000090: c147 97bc e9e5 ec3c 5026 8c3d dd66 913d
000000a0: 4048 463c 4a80 79bc 091d ddbc f4b6 11bd
000000b0: 4c55 bdbc 0c59 11bd e56e 5e3d e99e 53bd
000000c0: 59d5 a83b b298 833d 16a3 153d ef96 643c
000000d0: 7b41 ddbc 6409 5dbb b452 68bd df30 b43c
000000e0: e347 17bd 7514 7cbd 6fef 7dbd be60 6abd
000000f0: 54b9 2fbd 2ebd f0bc b90c 953a fe5c a4bd
00000100: 0658 0a3c da59 1b3c 36b4 0c3c 474b eabc
00000110: 0ed5 afbb 8cb4 21bc 9727 23bd 7c44 25bc
00000120: e00f 1f3c 6c1c f0bc 96ef 233d caff 213d
00000130: 031a f4bb 0b98 1f3d 95fb d43c c4e3 54bc
00000140: b4df cebc b2b8 733d e067 353b 65bc a2bd
00000150: 2ccf edbc d071 a5bb 43b6 16bd e785 b6bc
00000160: a433 c6bb 29a1 273c 74a4 aa3c 1fc6 d2bc
00000170: 897b b2bb f145 943d 0d93 a73d 91e0 76bc
00000180: 0200 393c 60f7 b23c f4c0 22ba 611e 66bc
00000190: 333f 683d 98b3 2fbc 1630 cfbc 1485 713d
000001a0: 0ccf 913b 231f 28bd 8e46 313d 633a 6c3d
000001b0: 45c4 353d c873 edba 3d3c e73b ca8f 183d
000001c0: d5d1 bf3c f7e5 0abd 11ad 763d afaa aebb
000001d0: ca74 4e3b 2705 a2ba a4e5 d5ba de37 d03c
000001e0: 75ef 573c 948f 873c 60a8 89bd 97b4 1f3c
000001f0: 8d10 91bc 7427 14bd 9571 403c 3174 2c3b
00000200: a72a dcbc 456a ff3c 6c88 ba3d cb91 623c
00000210: e42f 583c c4e9 d03c 492c 613d 72a5 863d
00000220: 06cc 5f3d 540f 0ebd 976d 04bd 9ca5 ca3c
00000230: 8f4d 8a3c 4dd2 903c 2d94 92bd 1dfa 06bd
00000240: f178 88bd ba4c 8fbd 5ba4 69bd cb0c b0bc
00000250: 1e9c 033d 6288 9dbc 17e8 fe3a 2906 32bd
00000260: 607c ba3c 4db1 c7bc 8f5d c6bb 398a 963d
00000270: ad51 b33c 9de1 303d 920f 533d 7348 4f3d
00000280: d614 9d3b bb67 223c 8254 25bd 79aa b43b
00000290: c22e 803c 6042 963c 14bc a93d c7d2 063c
000002a0: 825d 4cbd 066d 103d a53d 613a 2311 663d
000002b0: 6305 273d 1765 d63c b037 083d 6002 c6bc
000002c0: 7012 0ebd 1d39 fbbd 1983 b2bd dddb b3bd
000002d0: 91b7 c03c ccc8 213d 167e d3b9 9f6f 9ebd
000002e0: 36cb b53c efb6 d7bc 21cd 673c b40e c03c
000002f0: 8605 813c 5be4 d83c 263c 413c 1a97 9e3d
00000300: 061f 00bd 30bf 8e3c ec4c 83bc cfd0 e93b
00000310: cc04 e33b a6fc 473d 6ed4 f93c 25b7 8c3c
00000320: 6539 e5bb beba 88bd 4d21 89bc 8f9b a1bb
00000330: 8455 a43c fad4 3f3c 5f88 a93c 7d02 cabc
00000340: fda1 12bd 80a8 773d 00d7 4e3d 4afe b93c
00000350: 26d3 1e3c 7e08 88bd 956f 78bc 6b73 00bc
00000360: 15b0 c5bd 8b3b dbbb 418d 4fbc 131b 31bd
00000370: 0119 cdbd 1b37 333c e263 b83b 8bda 76bd
00000380: 0df9 b039 6789 01bc f537 ccbd 3178 9dbd
00000390: 738e 22bb bab9 ffbc 4a08 4dbd df3a 543c
000003a0: 3e8a 86bc ce62 b43d 3909 293c dd0a fa3b
000003b0: 6982 ee3c f1f1 383d e438 be3a 923d 493d
000003c0: 53b3 113d 26ce e13c 42cd 63bd 156b 81bd
000003d0: c0df 5cbd 1a27 27ba 4f7a 353c c6f7 843d
000003e0: 43ce 063d 7f0f e73c 12c3 5c3d 2032 b53b
000003f0: ac66 463c 23dc 54bd 4b8e 28bc 9e1c 5ebd
-0.08974162 -0.041636147 -0.0013101023 -0.04480578 0.050503604 0.0026476244 0.030613648 -0.016024534
-0.024473514 0.03958556 0.041400753 0.05220214 -0.0024634108 -0.04378664 0.030687833 0.026590671
-0.031215401 0.041033834 -0.006723249 0.015476318 0.0390904 -0.0036348803 0.028956847 -0.02308144
0.010813383 -0.05421867 0.025080696 0.0027556443 -0.046412103 -0.055471502 0.010793218 0.017765775
-0.04218735 -0.013867519 -0.042929914 -0.05521554 -0.018466832 0.028918223 0.06843245 0.07099698
0.012102187 -0.01522834 -0.026991384 -0.03557487 -0.023111962 -0.035485312 0.054304976 -0.05166522
0.005152386 0.06425609 0.036532484 0.013952001 -0.027008763 -0.003372752 -0.056719497 0.02199596
-0.03693379 -0.061542947 -0.06199592 -0.057221167 -0.042901352 -0.029387083 0.001137159 -0.08025549
0.008443838 0.0094818715 0.0085878875 -0.028600348 -0.0053659743 -0.009869706 -0.039832678 -0.010087129
0.009708375 -0.029310428 0.04002341 0.03955058 -0.00744939 0.03896336 0.02599887 -0.012993757
-0.025253154 0.05950231 0.0027680323 -0.0794609 -0.029029451 -0.005048968 -0.036794912 -0.022280646
-0.0060486365 0.010231295 0.02083037 -0.025729237 -0.0054468554 0.07239903 0.081823446 -0.015068189
0.011291506 0.021846473 -0.0006208562 -0.014045329 0.056700896 -0.010723971 -0.025291484 0.058964804
0.0044497307 -0.04104532 0.043280177 0.05767287 0.04437663 -0.001811617 0.0070567415 0.037246503
0.023415485 -0.033910718 0.060223643 -0.0053304057 0.0031502717 -0.0012361155 -0.0016319049 0.025417265
0.01317965 0.016547956 -0.06721568 0.009747646 -0.017708087 -0.036170438 0.01174583 0.0026314373
-0.026875807 0.031178603 0.09108052 0.013828705 0.013195012 0.025502093 0.054973874 0.06574525
0.05463793 -0.034682587 -0.032331076 0.024737172 0.016882686 0.017678404 -0.071571685 -0.03295337
-0.06663693 -0.06997056 -0.057041507 -0.021490475 0.032131307 -0.019230071 0.001944783 -0.043462906
0.022764385 -0.024376536 -0.0060536335 0.07350583 0.021889532 0.04318391 0.05152852 0.050606202
0.0047937436 0.009912427 -0.040363796 0.005513486 0.015647296 0.018342197 0.08287826 0.008228964
-0.049893863 0.035260223 0.00085922546 0.056168687 0.04077662 0.02617125 0.033256233 -0.024171054
-0.034685552 -0.12266753 -0.08716411 -0.0878217 0.023525031 0.039498135 -0.00040338997 -0.07736134
0.022191625 -0.026332347 0.014148028 0.023444511 0.015749704 0.026476076 0.011794126 0.07743664
-0.031279586 0.01742515 -0.01602789 0.0071354876 0.006928062 0.04882493 0.030496802 0.017177174
-0.0069953674 -0.06676243 -0.016739512 -0.004931874 0.020060308 0.011708492 0.02069491 -0.02465939
-0.035799015 0.06046343 0.05049801 0.022704262 0.009693896 -0.06642245 -0.015163322 -0.007840018
-0.096527256 -0.0066904477 -0.012667955 -0.04323871 -0.10014535 0.010938431 0.0056271413 -0.060267013
0.00033754893 -0.007906294 -0.099716105 -0.0768894 -0.0024804145 -0.031216491 -0.050056733 0.012953489
-0.01642334 0.08807908 0.01031714 0.0076306895 0.029114919 0.04515261 0.0014512804 0.049130984
0.035571408 0.02756412 -0.05561567 -0.063192524 -0.053924322 -0.0006376371 0.011076524 0.064925715
0.03291155 0.028205631 0.05389697 0.005529657 0.01210944 -0.05196775 -0.010287832 -0.05422651

fc1.bias f4 [50]
00000000: 91cf 533d de1a 0b3d 03bf 1ebb d558 4ebb
00000010: ac80 c63c f7ca 0dbc 9b09 893b c759 d6bc
00000020: d0e2 ee3c 7159 1e3c 5f8d e83c dd37 5c3d
00000030: 7730 a7bc 5980 b8b8 0b7c e5ba 9cff 0ebd
00000040: c26f 863d f304 e13c 89d5 983d 5e41 c7bc
00000050: 862a d53c a463 c23c d872 dfbc 7755 4b3d
00000060: 3e64 433d 0025 79bb 46a5 a33d 2542 a9bc
00000070: 31cb 10bd 811f e1bc 0cc8 e6bc 9671 463d
00000080: d5b2 173c 5410 f3bc 05ef 35bd d11b a83d
00000090: 2f9e 763c 1600 66bd e9b9 123d 36fa 0ebd
000000a0: 3734 d43c 3273 973d ee65 093d 633d f0bc
000000b0: 2ef0 c2bc 95ae b03c b289 32bd 4039 46bd
000000c0: 09ec 723d b2b8 193d
0.051711623 0.03396117 -0.0024222739 -0.0031486053 0.024231277 -0.008654348 0.0041820533 -0.026165856
0.029160887 0.009664879 0.028387723 0.053764213 -0.020408852 -8.79771e-05 -0.0017508281 -0.034911737
0.06564285 0.02746818 0.074626036 -0.024323162 0.026021253 0.023729153 -0.027276441 0.049642053
0.04770302 -0.0038016438 0.07990508 -0.020661423 -0.03535003 -0.027480843 -0.028171562 0.048448168
0.0092589455 -0.029670872 -0.0444174 0.082084306 0.015052362 -0.056152426 0.03582183 -0.03490659
0.025903804 0.07395019 0.033544473 -0.029326146 -0.023796167 0.021567622 -0.043588348 -0.04839444
0.059307132 0.037529655

fc2.weight f4 [10, 50]
00000000: 2edd 3c3e 25ac cabd c6fa 2c3e d5e1 d13d
00000010: f30d e0bd e83f 3bbd 523a 30be aedc 29be
00000020: 35fc dbbd 0907 ecbd 2321 6abe 1ac0 01be
00000030: ebe3 b7bd a548 103e 236c 823e d875 1f3e
00000040: f9eb 7dbd e6e3 5d3e 120e 0f3e 8f93 eabd
00000050: bfa3 65bd 562c 18be e01f b0bd 4f19 86be
00000060: 5660 a5bd 0f56 3fbe 833a 4bbe 0e5f 7ebe
00000070: a541 003d b0d6 3d3e 9bf8 1fbe b7c7 ebbd
00000080: 3275 5d3e baf7 fd3d 9db9 04be da54 4a3e
00000090: de64 e83d 7e9a 1a3d 8ff7 81bd 8a45 03be
000000a0: 97cb 14be d738 60be f6c9 be3d bbaa d0bd
000000b0: 5205 3fbc b8b2 7b3e 2546 2cbd 0737 733d
000000c0: a3eb 083e 9eed 013e 9e47 bcbc e513 193e
000000d0: ff06 41be c720 573d 7e34 373e 69cf 323e
000000e0: f9db 6abe d1cb e13d b4d8 353c ee39 20be
000000f0: e475 143e 642a 633e 3a47 04be 4219 24be
00000100: a3bd b73b 562c 74be 6c9a 1b3e 50d3 ffbc
00000110: 62f2 6fbe 115c cd3d 5f5c 25be 8f40 0c3d
00000120: 29cc 123e 620d 163e 1432 263e dd86 87be
00000130: 2c7d 91be 46d9 9f3d 4004 0d3e 8b31 a23c
00000140: 0c55 343e 60aa f2bd b0db 58be 67f0 66be
00000150: 9c69 0a3e daa4 6a3d 2716 00be 708d a2bd
00000160: 86f1 0a3e 1a27 c93d 1238 4bbd 7994 dc3d
00000170: e199 c2bd 2adb 6cbe 3cbe 033e c203 f5bd
00000180: 4e10 2fbe a9ec 273e 329e 7cbe b11a dc3c
00000190: 8111 7cbd 7c5f 57bd 35ba 91bd 6379 2abd
000001a0: 6c51 c2bd 5026 1a3e c7f1 e03d f739 d33d
000001b0: 72d2 433e 0970 e33c cb19 29bd 5617 623e
000001c0: f900 753d 2b3d ee3d 0cd8 323e cda2 e03d
000001d0: 1e68 bcbd 9536 79bd 9f55 1bbe 5be2 35be
000001e0: 32e7 b4bd dc28 d33d ab94 f7bd 54bc 3cbe
000001f0: da81 37bd d299 c3bd 15bb 2cbe 744b 393c
00000200: 0f93 61be f35e 02bd 7375 d7bd 6f10 acbd
00000210: 8fdf e53c 1b24 17be b071 0e3e 778d 143e
00000220: 1ba3 a8bd 25f1 efbd ebcb 253e 7558 0abc
00000230: 24a0 3f3e 2bd5 403e 7d58 f4bd 434d a3bb
00000240: 1358 d63d e0bf 4c3e cdce 883d c644 0e3e
00000250: 8db7 e7bd d5e2 1c3e 75ec 92bc 34fc 4a3e
00000260: c2a0 053e 62ce 2abe f093 5cbd 5bbb 36be
00000270: bbba 0b3e 0b95 0f3d 0d7b 6939 d7a6 783b
00000280: 32af 57bd 7049 6a3e f9c3 09be 09a5 5c3d
00000290: ba69 e53d cce4 94bd 7ed1 03be b0e4 003b
000002a0: ce3c d9bd df71 4e3e dc6d 483e 1f41 4a3e
000002b0: 00a5 f13d dbfb 6fbd 23ff 32be ebf1 02be
000002c0: 90e2 2a3e f580 49bd 797e 3c3e 9f5e e5bd
000002d0: dfa6 80be c84b 683e 23ff f7bd 47eb 143e
000002e0: 32f6 183d e049 8d3d a753 193e da95 2fbb
000002f0: 3ca9 5cbe 6c96 54bc b807 213e 08bd 363e
00000300: b80b 13be 9be2 943d bdb3 de3d 7214 e5bc
00000310: da36 debd 8822 11bd 52d2 d8bd 1762 063e
00000320: 2c82 27bd c1e0 99bc 57f7 bbbd e2dd 8b3d
00000330: ae43 cc3c 629e 373e cee7 123e fa0e 1fbe
00000340: 4e92 c0bd ce80 06be f790 583e cbbd c5bb
00000350: c6fa 723e 9633 4fbe 1196 e3bd 9290 113e
00000360: e504 04bd 0e39 04be 5de0 6ebd 9fc0 e3bd
00000370: d314 fabd 323d 0cbe 849b 453e 4e83 393e
00000380: 7147 1e3e 9063 3b3e 1051 953d b8b2 fb3d
00000390: 678c be3b a62c aabd 0181 0b3e 7057 323e
000003a0: 9516 2dbe 624c 81be ba8f eebd 7ae9 20be
000003b0: c24d d4bd 45e0 963e bbb2 213e 414d 65bd
000003c0: 0b84 5cbe 1046 1bbe dcd3 003e 9b9e 7c3b
000003d0: 46eb 35be bb66 2c3c 65cd b4bd 37a0 33be
000003e0: f8d8 323e ffd1 24be 57aa 9a3d 6e1c 99bd
000003f0: 41dd 1e3d 100d 60be 8917 b93b 283d dcbd
0.18443748 -0.09896115 0.16892537 0.10248152 -0.109401606 -0.045715243 -0.17209747 -0.16588089
-0.10741464 -0.11524779 -0.22864203 -0.12670937 -0.08979019 0.14090212 0.25473127 0.15572298
-0.06199262 0.21668968 0.13970211 -0.11453926 -0.056064364 -0.14860663 -0.0859983 -0.26191184
-0.08075015 -0.18685172 -0.19846539 -0.24840948 0.031312604 0.18538928 -0.15622179 -0.11512702
0.21626738 0.12400766 -0.12961431 0.19758931 0.11347364 0.03774499 -0.06346046 -0.12819496
-0.14530788 -0.21896683 0.09315865 -0.10188814 -0.011658983 0.24579895 -0.042059083 0.05937865
0.13371138 0.126883 -0.022983368 0.14948995 -0.18850325 0.052521493 0.17891118 0.17461933
-0.22935475 0.11025203 0.011099029 -0.15647098 0.14498097 0.2218414 -0.12917796 -0.1602526
0.0056073233 -0.23845038 0.15195626 -0.031228691 -0.23432305 0.10027326 -0.16148518 0.034241255
0.14335693 0.14653543 0.16230041 -0.2647008 -0.2841581 0.078051135 0.13771152 0.019799015
0.17610568 -0.11848903 -0.21177554 -0.22552644 0.1351685 0.05728612 -0.1250845 -0.07937133
0.13568696 0.09821911 -0.04961402 0.107705064 -0.09502006 -0.2313048 0.12865537 -0.11963607
-0.17096063 0.16398872 -0.24669722 0.026868196 -0.06154013 -0.052581295 -0.07115594 -0.04161967
-0.09488186 0.15053678 0.10983615 0.1031379 0.19123247 0.027763383 -0.041284364 0.22079214
0.05981538 0.116327606 0.17465228 0.10968552 -0.09199546 -0.06084307 -0.1516938 -0.17762129
-0.088331595 0.10310528 -0.12088903 -0.18431216 -0.04480157 -0.09550823 -0.16868241 0.011309493
-0.22028755 -0.031828832 -0.105204485 -0.08401572 0.028060703 -0.14759867 0.13910556 0.1450709
-0.08234235 -0.117159165 0.1619107 -0.008443941 0.18713433 0.18831317 -0.1193094 -0.0049835755
0.104660176 0.1999507 0.06680069 0.13893422 -0.113143064 0.15320905 -0.017935017 0.1982277
0.13049605 -0.16680291 -0.05385202 -0.17844908 0.13645451 0.035054248 0.00022266452 0.0037941241
-0.052657314 0.22879577 -0.13453664 0.053868327 0.11201806 -0.07270202 -0.12872884 0.0019667558
-0.10607301 0.20160626 0.19573158 0.19751404 0.117990494 -0.058589797 -0.1748014 -0.12787597
0.16687989 -0.04919525 0.1840762 -0.11199688 -0.25127313 0.22685158 -0.1210921 0.14542876
0.037344165 0.06898856 0.14973317 -0.00267922 -0.21548933 -0.0129753165 0.157256 0.17845547
-0.14359939 0.07269784 0.10874126 -0.02796385 -0.10850306 -0.035433322 -0.105869904 0.13123356
-0.040895626 -0.018783929 -0.09178036 0.0682943 0.024934616 0.17931512 0.14346239 -0.15533057
-0.094029054 -0.13135073 0.2114905 -0.006034588 0.23728475 -0.20234522 -0.11112607 0.14215305
-0.03223123 -0.1291239 -0.05831944 -0.11120724 -0.12211003 -0.13695219 0.19297606 0.18116495
0.1545694 0.18299699 0.07290852 0.12289947 0.005815077 -0.08309297 0.1362343 0.17416167
-0.16903146 -0.25253588 -0.116485074 -0.15714064 -0.103663936 0.2946798 0.15790837 -0.05598188
-0.21534745 -0.15163445 0.12580818 0.0038546685 -0.17765531 0.01052254 -0.088282384 -0.17541586
0.1746558 -0.16095732 0.07552021 -0.07476126 0.038785223 -0.21879983 0.0056485576 -0.10753852

fc2.bias f4 [10]
00000000: 94d2 79bd 622e 2f3d f5c4 e1bc 3be5 0ebe
00000010: 4b99 9bbc 0dcc d43d 50e2 09be 218b fcbd
00000020: 2d1b b63d 0d19 edbc
-0.06099184 0.042768843 -0.027559737 -0.13954632 -0.018993994 0.10390482 -0.13465238 -0.12331224
0.08891902 -0.02894261
