results/model_fashion.pth (torch_old, 88660 bytes, 8 tensors)

conv1.weight f4 [10, 1, 5, 5]
000000 ec f4 6d 3e 14 12 2c bc d9 79 94 3d 49 30 d7 3e
       0.23237962 -0.010502357 0.07249803 0.42029026
000010 5a ab 95 3e 1f 44 3a 3d cf cd 6a 3e 64 74 d1 3d
       0.29232293 0.04547512 0.22930072 0.10227278
000020 80 19 20 3d 29 b3 74 3e db c3 24 bd 81 9c 10 3e
       0.03908682 0.23896469 -0.040225845 0.14122202
000030 9d d7 c6 3d 32 81 24 3e d4 7a 42 be 14 97 ca bc
       0.09709094 0.16064909 -0.18992168 -0.024730243
000040 4c 1d a3 be 11 ae cb be e1 0d b2 3d 69 21 9a bd
       -0.3185829 -0.3978124 0.086940534 -0.07525904
000050 0f 40 61 be ba 7f 34 be ed 4d f5 be b9 b1 a6 be
       -0.21997093 -0.17626849 -0.47911015 -0.32557467
000060 54 ac be bd 1d 4d db bd ce 2b b3 be 4d e7 2c be
       -0.09310213 -0.107080676 -0.34994358 -0.16885109
000070 0d 47 48 be 38 ec a7 be d7 cb b3 be 96 28 e3 bd
       -0.19558354 -0.32797408 -0.35116455 -0.110917255
000080 29 e1 13 be ec 9a b0 be 74 0c 9a be e3 e8 88 be
       -0.1444136 -0.34493196 -0.30087626 -0.26740178
000090 9f f1 92 be 6e 87 84 be 3e 00 71 bd 8b 60 d8 3d
       -0.28699967 -0.25884575 -0.05883812 0.10565289
0000a0 be 63 2e 3e 84 30 a6 3a 58 b5 9c bd ca fa 5c be
       0.17030236 0.0012679254 -0.07651776 -0.21580043
0000b0 5f 57 f2 3c 54 fd cf bd 29 df ca 3d 90 46 58 be
       0.029582677 -0.101557404 0.09905846 -0.21120667
0000c0 a1 ce 05 bd e2 77 97 3d f5 d7 ba 3e ce 79 c4 bd
       -0.03266776 0.07395913 0.36492887 -0.09593545
0000d0 99 f2 86 be 08 1b 05 be 17 a5 57 bd 37 73 57 3e
       -0.26356962 -0.12998593 -0.052647676 0.21040045
0000e0 54 e5 8c 3d 5f 89 0d be 25 c3 de bc 69 06 14 3d
       0.06879678 -0.13821934 -0.027192662 0.036138926
0000f0 4a e4 18 3e b6 04 8b 3e 53 44 61 be 3d 2b 85 bc
       0.14930835 0.27152032 -0.2199872 -0.01625597
000100 bd ff e2 3d 20 aa c3 3e 72 5e ba bc 39 17 97 bd
       0.110839345 0.38215733 -0.022750113 -0.07377476
000110 8a 4a 94 be 61 b0 96 be 9b 78 d5 3d 0b 70 79 3e
       -0.2896312 -0.2943144 0.10423394 0.24359147
000120 fb be bc 3d 11 6e 0c be 55 ce 20 be 8a ab be bc
       0.09216114 -0.13713862 -0.1570371 -0.023275156
000130 52 ca 33 3c 25 1f 19 3e c6 64 ae 3e 0c 06 3a 3e
       0.01097353 0.14953287 0.3406126 0.18166369
000140 80 fe cb 3d b9 ef 82 3e 4c 3f 7d 3e 90 37 93 3c
       0.099606514 0.2557352 0.24731177 0.01797083
000150 23 fe 49 be 5e fa 78 3d 9b 46 ed bd 3d fd 93 bc
       -0.19725852 0.060785644 -0.115857325 -0.01806509
000160 a4 83 e5 3d ae fc 4d bd b3 4e 60 bc 26 53 29 3e
       0.11206749 -0.050289802 -0.013690638 0.16535625
000170 f0 a6 07 bd 53 14 17 be 14 07 cd 3d b8 b7 b4 3d
       -0.03311819 -0.14753847 0.10011116 0.08824104
000180 10 8a c9 3d fd 55 fc 3d 80 89 13 3e 94 09 82 be
       0.098407865 0.123210885 0.14407921 -0.25397933
000190 66 2e 79 3e 52 26 bd be e1 7d 8a 3e 13 42 6a 3e
       0.24334106 -0.369433 0.27049163 0.22876768
0001a0 3d d3 8c 3d 48 b1 05 be 27 b8 c9 be ba 54 2a 3d
       0.06876228 -0.13055909 -0.3939831 0.041584708
0001b0 72 44 cf 3e d3 d5 db 3c e2 d8 24 be 79 6f cc be
       0.40481907 0.026835358 -0.16098359 -0.39928797
0001c0 05 27 48 3d 74 85 61 3e da a7 23 3c 74 f0 40 3e
       0.048865337 0.22023565 0.009988749 0.18841726
0001d0 18 f5 d3 be 96 4b a5 bd e2 2e 00 3e 40 62 22 3e
       -0.4139793 -0.080710575 0.12517884 0.15857792
0001e0 be 9e fb 3d ad 00 f3 be 1c 93 57 3d a7 0e 52 3e
       0.12286137 -0.47461453 0.05263053 0.20513402
0001f0 41 cc 39 ba 22 55 86 3e 2a a9 39 3e 38 13 11 be
       -0.0007087626 0.26236826 0.18130937 -0.14167488
000200 93 4b f7 bd a5 eb 45 bd 31 b6 be 3d f9 8f 13 3e
       -0.120749615 -0.04832043 0.09312094 0.1441039
000210 3b ae 90 be dd 64 2e be 5c 31 29 3e 4f de f4 3c
       -0.28257927 -0.17030664 0.16522735 0.029891161
000220 f6 4a fb 3d 8a ee 6c be aa 08 4d be de e8 9d 3e
       0.12270157 -0.2313787 -0.20022836 0.30841726
000230 ae 10 ec 3d af 4f 5e be f8 96 04 be 1a 91 0b be
       0.11526619 -0.21710084 -0.12948215 -0.1362957
000240 79 ba f3 3e 47 6b 7c be 73 02 8d be 79 17 0b be
       0.47603205 -0.24650298 -0.2754093 -0.13583173
000250 07 71 6c 3d 7e 87 c2 3e 02 63 85 be 0a 00 0f bf
       0.05772498 0.37993997 -0.260521 -0.55859435
000260 91 d4 a3 be 5e ba 20 be 6a 69 04 3d 71 92 8f be
       -0.31998113 -0.15696093 0.032327093 -0.28041413
000270 b4 a9 fa bd 0c 0b aa be 0d d9 1c be 2f 82 e7 3b
       -0.122393996 -0.33211553 -0.15317173 0.0070650796
000280 e5 f6 3e 3d 6d 14 d7 3b d8 fe b1 3c dd 83 20 3e
       0.046622176 0.0065637142 0.021727964 0.15675302
000290 e1 f9 af bd 2f ce d9 bd d1 32 72 bb 15 d4 72 3c
       -0.085925825 -0.106350295 -0.0036956558 0.014821072
0002a0 dd 10 a5 3e 38 bf 24 3e 98 a6 b1 3e 2d 11 a4 3e
       0.32239428 0.16088569 0.34697413 0.32044354
0002b0 f8 16 b4 3e da 83 64 3e 56 55 84 3e 0a a1 89 3e
       0.35173774 0.22315922 0.25846356 0.26880676
0002c0 1c 76 5b 3e 12 dd 16 3e ff fb bf be 2e 0b 79 be
       0.21431774 0.14732769 -0.37496945 -0.24320671
0002d0 8e 96 89 3d 34 8f 8e 3e 10 8a 5a bd e5 f8 fa bd
       0.06718169 0.2784363 -0.053354323 -0.12254504
0002e0 39 02 a5 be 39 ea d4 bc 93 7f d3 3e c0 26 07 3b
       -0.32228258 -0.025990592 0.4130827 0.0020622462
0002f0 cb 06 91 be 96 dd 15 3d d4 a9 a6 3e 96 75 92 bd
       -0.28325495 0.036588274 0.32551444 -0.07151334
000300 12 d9 30 bd b6 e7 6e bd 9f 1e 10 be 59 37 99 3e
       -0.043175764 -0.058326446 -0.14074181 0.2992504
000310 db 68 85 bd e8 bf 61 3e 51 1c 7e be 36 ba 64 be
       -0.0651414 0.22045863 -0.2481549 -0.22336659
000320 1a 4e 6e bd 53 08 78 bd 3e cf d4 bd 44 c7 de 3d
       -0.058179952 -0.060554814 -0.10391091 0.10877851
000330 c0 08 fd 3d d3 4c 7e be 87 45 ca 3c 3d 2b b0 3e
       0.123551846 -0.24833994 0.024691356 0.34407988
000340 b6 87 84 3c 37 34 d4 bd 01 ee dc be d3 b3 10 3e
       0.016177993 -0.10361522 -0.43150333 0.14131097
000350 a2 bf 3d bc fe 6c 78 3e 51 3f 3c 3d 56 06 69 be
       -0.011581333 0.24260327 0.04595882 -0.22756323
000360 68 56 a1 bd 69 a1 01 be 0b b0 fe 3d 0b cf c2 3e
       -0.07877809 -0.1265923 0.12435921 0.38048586
000370 58 e8 aa be 24 9a a5 be d4 39 d8 bd 85 71 91 3e
       -0.3338039 -0.32344162 -0.10557905 0.2840692
000380 63 09 a1 3e 2a ae 84 3d 3b ee 60 bd 31 b6 af bd
       0.31452474 0.06478532 -0.054914694 -0.08579672
000390 c8 25 95 be d1 a2 95 be ba b2 25 be 0b 1c 00 3e
       -0.29130387 -0.29225782 -0.1618146 0.12510698
0003a0 07 5f e3 be 3a 60 13 bf 77 6a 87 be f0 7c fd 3d
       -0.44408438 -0.57568705 -0.26448414 0.123773456
0003b0 f7 2d 26 3c c7 9f ed be 72 6e 24 bf 14 60 db be
       0.010142795 -0.46410963 -0.64231026 -0.4284674
0003c0 11 b5 5a 3e b1 64 0d 3e 45 0f a1 be e4 b2 02 bf
       0.21358134 0.13807942 -0.31456962 -0.51054215
0003d0 f3 d0 40 be 42 23 ec bb 56 15 ec 3d 12 82 87 bd
       -0.18829708 -0.0072063515 0.11527507 -0.06616606
0003e0 f9 e8 50 be 7b 52 e3 bd
       -0.20401372 -0.11099716

conv1.bias f4 [10]
000000 ee 8a e8 3c e9 cd 10 3d 9f 66 a7 3e 29 7e 8b 3e
       0.02838656 0.03535262 0.3269548 0.2724469
000010 48 57 3f bb 22 99 94 bc c7 66 ff 3c de 61 10 3e
       -0.002919631 -0.018139426 0.031176938 0.14099833
000020 ec 48 b6 3b 05 87 38 3e
       0.005562892 0.18020256

conv2.weight f4 [20, 10, 5, 5]
000000 9a c0 19 be 9f 22 9d bd 06 c4 5e 3d 20 e3 c9 3d
       -0.15014878 -0.07672619 0.05438616 0.09857774
000010 3f 85 0d 3e 2c ce 17 bd c4 52 87 bd b9 1c c6 bc
       0.1382036 -0.037061855 -0.06607583 -0.024183618
000020 6c 30 37 3d 0d d4 a6 3d cd e4 9c bb bc af 36 bc
       0.044723913 0.08145914 -0.0047880174 -0.011150297
000030 3b d0 0b bd a6 63 e1 ba ec 04 8d 3c d6 16 a2 ba
       -0.03413413 -0.0017195835 0.017214261 -0.0012366425
000040 91 89 7b bd 32 79 2c 3c fa 42 28 bc 96 51 5e 3d
       -0.06141049 0.010526942 -0.010269875 0.054277025
000050 af cf ff 3c 09 ed 13 bd a7 94 3d 3d 6a fd 73 bd
       0.031226961 -0.036114726 0.046284344 -0.059567846
000060 a5 69 2d bc 51 03 d0 bb 7d b5 47 bd ec 3a 0d 3d
       -0.01058427 -0.0063480516 -0.048757065 0.03448002
000070 64 cb 78 3d 47 20 4d bd 5b 6c e1 3c 7c 53 d3 bd
       0.060740843 -0.05007961 0.027517488 -0.10318658
000080 04 d2 d2 bd 58 16 a6 bc d9 bb f8 3c 03 23 33 3d
       -0.102939636 -0.020274326 0.03036301 0.04373456
000090 d1 df fb 3a 8d 95 b6 bd cb 71 72 3d 1a b1 13 3d
       0.0019216483 -0.08915243 0.059190553 0.03605757
0000a0 e3 29 44 3c 20 95 cc bd 97 7a be bc 97 df 37 3d
       0.011972877 -0.09989381 -0.023251815 0.044890966
0000b0 f8 07 97 3d 29 a8 04 3d 6b c4 30 bc eb 32 1b bd
       0.07374567 0.032386933 -0.010789017 -0.037890356
0000c0 c3 6f 3c bd 26 2e a3 39 77 bd 09 3e 09 04 10 bd
       -0.04600502 0.00031124166 0.13451181 -0.0351601
0000d0 85 79 29 3d 24 60 df 3c 9a 26 0f be 1e 70 1e 3c
       0.041375656 0.027267523 -0.13979569 0.0096702855
0000e0 40 9c 8f 3d 5f 75 bf 3d 68 7d b8 3d d1 ab 04 be
       0.07012224 0.09348559 0.09008294 -0.12956168
0000f0 de 4b 8c 3d 41 dc 73 3c 56 13 2f 3d 3a 56 35 3d
       0.06850408 0.014884056 0.04274305 0.044271685
000100 47 25 97 bd 49 51 af 3a 06 42 7c bc fb 45 84 3d
       -0.07380157 0.0013375665 -0.015396601 0.0645866
000110 fe 2f 02 3d aa 0a e9 3d 72 20 e0 3c ab 81 79 bd
       0.03178405 0.11378987 0.027359221 -0.060914677
000120 49 55 33 3d 61 6d d0 3c ab 05 68 bc 99 45 64 bc
       0.043782506 0.02544278 -0.014161508 -0.013932609
000130 72 f5 88 bc 06 23 0b be 75 d8 01 3b 94 d2 bc 3d
       -0.0167186 -0.13587579 0.0019812856 0.09219852
000140 0e 9c 3b 3d c4 8f c7 3d a5 c3 67 3c 91 c7 12 bd
       0.045803122 0.09744218 0.014145766 -0.035834853
000150 0c 70 d7 bd 3d 5f bd bd ad 09 01 3d 69 66 3f bc
       -0.10519418 -0.09246681 0.03150337 -0.011682131
000160 99 01 2f bd 9e 01 a0 bd ec 8b 48 3d 14 54 8e 3c
       -0.042726133 -0.078128085 0.048961565 0.017374076
000170 89 3e 7b 3b f9 14 32 3d b7 f1 3c ba 50 3e d3 3c
       0.0038336834 0.043477032 -0.0007207649 0.025786549
000180 f9 47 31 3d 8c 19 96 3d 85 12 9a 3d 9e 43 a6 3c
       0.04328153 0.073290914 0.075230636 0.020295914
000190 d6 dc b9 bc e8 d7 1c bc 10 1b a0 bd af fd 31 3d
       -0.02268831 -0.00957296 -0.07817662 0.043454822
0001a0 59 1c 33 3e 56 1a 17 3e 4a c3 5f bc 35 21 02 3c
       0.17491283 0.1475614 -0.0136574 0.0079424875
0001b0 bc bd b6 bc 34 cb fd 3c 42 ef 1a 3e c7 28 d1 bd
       -0.02230727 0.030980684 0.15130332 -0.10212856
0001c0 4e 89 a1 bd 18 c0 98 bd 26 68 5f bd 73 b2 97 3d
       -0.07887517 -0.07458514 -0.054542683 0.07407083
0001d0 3a e5 05 bc 34 7b 7b bc f5 a1 ee bd 8c 7f d8 bc
       -0.008172328 -0.015349198 -0.116519846 -0.026428007
0001e0 c5 18 e5 3d e0 08 0c bd 6d ea 01 bd 2a 5a b6 bd
       0.11186365 -0.03418815 -0.031717706 -0.08903916
0001f0 57 02 e0 bd 3b de 1e 3d ca ad 21 3d b7 a0 3c bd
       -0.10937946 0.038786154 0.03947238 -0.046051707
000200 17 6b 9f bd d3 34 84 3b 2a 73 44 bd 59 c7 04 bd
       -0.07784098 0.0040346175 -0.04796139 -0.032416675
000210 3d 28 bc bd 19 4b b8 3c 50 64 26 bd 99 cc 4e bd
       -0.09187362 0.022496747 -0.04062301 -0.05048809
000220 52 36 89 bc 00 e7 c6 bd a4 db d1 bd b6 f0 03 bd
       -0.016749535 -0.097120285 -0.10246971 -0.03221198
000230 2d f3 a5 3c c8 20 b5 bd 94 bf 98 bc c0 3f 8b bc
       0.020257557 -0.08844143 -0.01864604 -0.016998172
000240 7a ef b8 bb 61 5b 34 3b fc 5d 23 bd ad 4c f3 bc
       -0.005643782 0.0027520286 -0.039884552 -0.029699648
000250 6e c4 b7 bd 9c 79 a9 bd 08 99 5f bd 46 63 c5 3d
       -0.08973013 -0.08275148 -0.0545893 0.096380755
000260 56 46 64 3d c0 9c 07 3e a1 7c 13 3e dd 6b fb bd
       0.05573114 0.13243389 0.14403011 -0.12276433
000270 b8 15 8e bd 0d 02 1e 3d 5b 4b 41 3d 43 49 bc 3d
       -0.06937736 0.038576175 0.047191005 0.09193661
000280 a4 08 b6 bd 81 90 fc bb 23 27 9c bd 9b ca f0 3b
       -0.08888367 -0.007707656 -0.07624652 0.007348371
000290 a9 af 1a 3c b3 8e e1 bc 98 f3 48 3d 33 55 d7 3c
       0.009441295 -0.027533865 0.049060434 0.026285743
0002a0 e8 89 b4 bc e2 30 1e bd a4 19 3c 3d d4 22 d7 3c
       -0.022038415 -0.038620837 0.04592289 0.026261725
0002b0 85 d6 0b ba 9d f0 07 bb f7 47 2a bd cc da 11 3e
       -0.0005334395 -0.0020742782 -0.041572537 0.1424362
0002c0 6f e0 00 bd b6 dd bf 3c a8 7a 83 bd a8 49 0e bd
       -0.031464037 0.02342115 -0.06419879 -0.034738213
0002d0 59 79 76 3c a5 3e ad 3c 64 6d 2c bc ba ab fe 3c
       0.01504358 0.021148035 -0.010524128 0.031087745
0002e0 a1 96 23 be c3 27 50 bc 5f 89 5c 3d 63 8c e5 bc
       -0.15975429 -0.012704792 0.053841945 -0.028021043
0002f0 c7 a7 bd 3d e1 da c1 bd 25 c8 ec bb 89 e0 52 bd
       0.092605166 -0.09465576 -0.0072260075 -0.051483665
000300 94 1c 97 bd 95 da a8 3b a3 3b 41 3c 9e b2 c2 bd
       -0.07378498 0.00515301 0.011794004 -0.09506725
000310 08 59 6c bd d8 28 54 bd 21 0b ba 3c f2 66 ae 3c
       -0.057702094 -0.051796764 0.022710385 0.021289323
000320 90 c1 a1 bc 59 ec dc 3c 5e 14 b2 bd e7 c3 af bd
       -0.019745618 0.026968168 -0.08695291 -0.08582287
000330 44 a9 db 3c 70 50 eb bc ff 35 5b 3d 30 dc a7 bd
       0.02681411 -0.028724879 0.05351829 -0.08196294
000340 9d 80 a2 bc 02 df 91 bc 36 44 8e 3c 6e ef 0e 3b
       -0.019836718 -0.017806534 0.01736651 0.0021810192
000350 77 ce e4 3c 77 0c d5 bd 3e 41 be bd 6f d8 c5 bc
       0.027930481 -0.10402768 -0.09289788 -0.024151055
000360 8e 35 ae 3c 67 24 6c bd 20 7a e2 bd 8f 68 f2 bd
       0.021265771 -0.057651903 -0.1105845 -0.11836349
000370 b7 fd 62 3d 30 bf 4f bc 67 bf bd bd 36 94 b7 bd
       0.055417743 -0.01267986 -0.09265023 -0.08963816
000380 5f 2e 0a be 16 8e cd bb 6f 4a c1 3c ca ca 3c 3e
       -0.13494252 -0.0062730415 0.023595063 0.18436733
000390 72 96 08 3d 24 8c 3f bd 14 bb 7e bd 8d 62 f6 bb
       0.0333466 -0.046764508 -0.06219013 -0.0075190724
0003a0 0e e9 be 3c 8a 87 3f 3d 0b 46 c9 bc ba 2a 12 bd
       0.023304489 0.04676012 -0.024569532 -0.03568528
0003b0 f0 87 c7 bd b2 39 63 bd 62 25 a7 3d 3a 99 3c bd
       -0.09742725 -0.055474944 0.08161427 -0.046044566
0003c0 ee 02 c6 bd 0e 0a d1 3c 2f d5 95 3c 70 f0 0b bb
       -0.096685275 0.02551749 0.01829013 -0.0021353029
0003d0 3f 87 c9 3b f0 40 ce bd 2e e5 25 bd de 34 7b 3d
       0.006150156 -0.100709796 -0.040501766 0.061329715
0003e0 f6 4d 28 bd b4 56 01 3e ed 76 bb bc 81 1b 61 3c
       -0.041089974 0.12630731 -0.022883857 0.013739468
0003f0 01 69 dd 3d a7 60 f6 3d a4 91 eb 3d 2c fa f9 3c
       0.108110435 0.12030154 0.11502388 0.030514799

conv2.bias f4 [20]
000000 fd 78 91 3d 65 6e e6 bc e4 73 7e 3c 64 75 21 3c
       0.07103155 -0.028128812 0.01553056 0.009854648
000010 17 9d c8 bc 37 5c 84 bd c9 ff 36 bc 84 ca cd 3d
       -0.024488969 -0.06462901 -0.011169382 0.100483924
000020 67 4d e6 bc 94 e6 94 bc 52 aa ce bd 0f 70 b1 3d
       -0.02811308 -0.018176354 -0.1009108 0.086639516
000030 cf 74 cb 3d cb 6f eb 3c 3f 2d ec 3b 95 7b f0 3c
       0.09934389 0.02873983 0.007207542 0.029355804
000040 77 f0 cf 3d 52 d1 13 bd 89 f1 67 3d 13 57 ef bc
       0.10153287 -0.036088295 0.05662683 -0.029216325

fc1.weight f4 [50, 320]
000000 09 2b 25 bd 3c 5e 83 3d 54 b1 3c 3d 16 9d e2 bd
       -0.040324245 0.06414458 0.04606755 -0.11065118
000010 ea 17 19 bd 12 64 28 3d 05 c3 64 3d 5e 27 52 bc
       -0.03737632 0.04111106 0.055850048 -0.012826769
000020 19 95 d6 3c 2b 61 59 3d a4 11 cd 3c 54 7c 93 bd
       0.026194142 0.053071182 0.025032826 -0.07201448
000030 f2 de 08 bd b7 e2 00 3e 8c bc ab 3c 80 0e cb bd
       -0.033415742 0.12586485 0.02096393 -0.09914875
000040 d0 5a ac bc af 4e 43 bd b2 ee 09 bc 7f 78 25 3d
       -0.021039397 -0.04768246 -0.008418726 0.040398117
000050 0c 2e 5b bc 23 54 df 3c 45 f4 55 3d 8f 1c d5 3b
       -0.013377678 0.0272618 0.052234907 0.0065036486
000060 c0 59 c2 3c f4 06 cc bc f2 46 50 bd e3 74 50 3d
       0.023724437 -0.02490566 -0.05084891 0.05089272
000070 01 e1 78 bc ec ff 01 bc ec c0 80 bc 4d fe 57 3c
       -0.015190364 -0.007934552 -0.015716992 0.013183189
000080 da 54 f5 bd c1 ad 6d bd 01 5e 02 3d 19 b8 bf 3c
       -0.11979075 -0.058027033 0.03182793 0.023403214
000090 3b a3 1d 3d 1d c4 84 3c ca f5 87 bd 57 80 8f 3d
       0.038485747 0.016206795 -0.066386774 0.07006901
0000a0 30 8b 45 3d 39 91 89 bd c1 2d d1 bb 80 fa d8 bc
       0.048228443 -0.06717152 -0.006383628 -0.026486635
0000b0 9b be 36 3d ea 55 a9 3d 50 ce d1 3d c9 a2 92 bd
       0.04461537 0.0826834 0.10244429 -0.07159955
0000c0 4d d8 01 bd 26 e6 02 bd cd 4c 02 3d 7a 50 e3 3c
       -0.03170042 -0.031957768 0.031811524 0.027748335
0000d0 e1 e4 e4 3b 9e 32 81 bd 03 b9 97 3c a3 74 c9 3c
       0.0069852923 -0.063084826 0.018520838 0.02459175
0000e0 5c 69 7a bc 70 de a7 3d ac fe b7 3c 6d 4a c2 bd
       -0.015283909 0.081967235 0.022460304 -0.09486852
0000f0 d0 6c ca 3b ed c9 d4 3c 2c c1 00 bc 20 44 a6 bc
       0.0061775222 0.025975192 -0.007858556 -0.020296156
000100 e0 59 e7 bd b9 21 b8 bd 6c cd d6 bc c7 8f dc 3d
       -0.11296439 -0.08990807 -0.026221 0.10769611
000110 29 27 3f bd 1c 0b f5 3c 4b e3 86 bb 8f e9 73 3c
       -0.046668205 0.029912524 -0.004116451 0.014887228
000120 f1 b1 15 bd 13 61 d2 bc a3 ee b1 3c 8f cc 2f 3d
       -0.03654665 -0.025681054 0.021720236 0.04291969
000130 9d 05 60 bc 12 43 8b bd 18 11 cc 3b ed 3e 18 3e
       -0.013673213 -0.06799902 0.0062276237 0.14867754
000140 b8 81 92 bd 21 56 a0 bd 17 c2 a1 3d 46 61 b0 bd
       -0.07153648 -0.07828928 0.07898348 -0.086123034
000150 e2 e7 cd b9 bd 74 4a 3c f5 91 b4 bb 0e c1 87 39
       -0.00039273413 0.012356934 -0.0055105635 0.00025893043
000160 79 06 ac 3d af 5f df 3c 64 62 5b 3d a7 9d ac 3c
       0.08399672 0.027267305 0.05356063 0.021071268
000170 27 e9 64 39 05 9e 91 bc f1 a8 54 bc 8a b7 52 3d
       0.0002183063 -0.017775545 -0.012979732 0.051444568
000180 a8 11 6d 3d 3c 31 ca 3b b3 e1 1c bb c6 85 6c bd
       0.057878166 0.00617042 -0.0023938238 -0.057744764
000190 15 c0 67 3d eb cf 3f bd 5e 0f e1 bc 12 d6 ed bc
       0.056579668 -0.046829145 -0.027473148 -0.02903274
0001a0 3f 59 65 3c cd 56 74 3d 01 fe 57 3d ce 38 1a 3d
       0.013998329 0.059653092 0.05273247 0.03765183
0001b0 cd 5b de bc 91 c9 e2 bc 43 20 8a 3d ae 07 79 3c
       -0.027143383 -0.027684005 0.06744435 0.015199585
0001c0 11 e0 90 bd 6e 25 73 3c 3d 4b d4 3d 96 55 61 bd
       -0.07073987 0.014840467 0.10365913 -0.05501326
0001d0 2a 90 7a bd c3 f2 55 3c 4b 80 24 3d 83 eb f7 bc
       -0.06117264 0.013058367 0.040161412 -0.030263668
0001e0 6a f7 92 bd 0d fc 20 bc 2d 4e 3e 3c 2a ee 78 3d
       -0.07176097 -0.009825719 0.011615318 0.060774006
0001f0 1e dd d5 3c c5 27 3a bd 8b 09 98 bd b9 f6 97 3d
       0.026106413 -0.045448083 -0.07423695 0.074201055
000200 a8 81 45 3d 62 41 a4 3b bf 78 38 bc 70 f8 fd bd
       0.048219353 0.005012677 -0.011259257 -0.12400901
000210 8c c4 a6 3d d4 a7 bf 3d a6 60 77 bb c0 83 e7 3c
       0.08142957 0.093581825 -0.0037746816 0.028261065
000220 1f e3 25 bd f8 14 bb bc 63 88 69 bc e7 07 33 3b
       -0.040499803 -0.022837147 -0.0142537085 0.0027317943
000230 ae c4 5f bd f2 28 f3 bc ca 5c df bc 22 5f 57 3d
       -0.054630928 -0.02968261 -0.027265925 0.05258096
000240 34 23 6a bd cf d2 7d bd d5 91 f6 bc f2 7c 75 bd
       -0.05716248 -0.06196862 -0.030098835 -0.05993361
000250 77 79 36 3d 76 df 96 3d 8b c4 4b 3d 50 91 77 bc
       0.04454943 0.073668405 0.049747985 -0.015110329
000260 c4 7b 87 ba 40 89 82 3d 0e a1 1d bd 5e 44 05 3d
       -0.0010336568 0.063738346 -0.03848367 0.032535903
000270 38 f6 1f bd d4 8c ff bd f6 52 c1 3d ea 87 cb 3d
       -0.039053172 -0.12478033 0.09439652 0.09938033
000280 ec 78 d8 3c 51 00 0d bd 13 5b 98 3c b7 82 85 bd
       0.026424848 -0.03442413 0.018598115 -0.065190725
000290 37 9f cb bc 2e f4 15 bc 82 0c 8b 3d 04 36 4f 3d
       -0.024856193 -0.009152455 0.06789495 0.050588623
0002a0 9f 80 05 3d d8 9b a2 bc 76 2a 0f 3d 0f 8a d0 3c
       0.032593366 -0.019849703 0.034952603 0.025456456
0002b0 34 6e 50 bd e8 68 39 bd 11 09 aa 3d 1b 33 df bc
       -0.050886348 -0.045266062 0.083025105 -0.027246049
0002c0 33 a0 98 bc ff 59 b4 3c c0 cd 31 be 69 8d 34 3d
       -0.018631076 0.02201557 -0.17363644 0.04408017
0002d0 98 24 01 bd c3 b5 59 bd 79 a5 a2 3b ef 24 df bc
       -0.03152904 -0.053151857 0.0049635735 -0.027239291
0002e0 c6 ed fb 3c 15 56 dc 3c 04 98 09 bd 22 78 48 3c
       0.030753028 0.026896516 -0.03359224 0.012235673
0002f0 37 2b b7 3d b3 62 7d 3d 47 6d ae bd 67 ec 5f bc
       0.089437895 0.061861705 -0.08516937 -0.013667203
000300 0d f6 99 bd d7 71 dc bc 70 e1 9f bc 1a 1c d1 3d
       -0.075176336 -0.026909752 -0.019516677 0.10210438
000310 06 75 ca 3c 7b 65 3a bd 80 9b b7 3c d1 a6 f9 3c
       0.024714004 -0.045506936 0.022413015 0.030475052
000320 a7 60 96 bc af d6 6f bb c6 11 0e bd 73 28 00 3d
       -0.018356634 -0.0036596467 -0.03468492 0.031288575
000330 00 e0 c7 3d e5 5d 94 3c 9a e2 fe 3b fa a1 2b bd
       0.097595215 0.018111179 0.007778478 -0.04190252
000340 f1 fc 79 bd f9 70 15 3c 03 54 98 bd 80 82 84 3d
       -0.06103224 0.009121173 -0.07437899 0.064702034
000350 8a 07 31 bc 76 70 23 3d d3 de b3 bc 09 6f 85 3c
       -0.01080502 0.039902173 -0.021956837 0.016288297
000360 c6 f0 7f bd 06 b8 a6 3d fd c9 8e bc 64 2c 8d 3d
       -0.06248548 0.081405684 -0.0174303 0.068932325
000370 87 55 63 3c 87 6d 63 3d 23 a9 96 bc f3 bc 27 3c
       0.013875372 0.055524375 -0.018391198 0.01023792
000380 70 41 16 3d d2 0c 37 3c 77 14 94 bd d6 b1 62 3c
       0.0366835 0.01117249 -0.07230466 0.013836345
000390 4f 3d 62 bd 9f eb 82 3a f8 10 5d 3c a5 94 c8 bc
       -0.05523425 0.0009988433 0.013492815 -0.024484942
0003a0 2b ff 0e 3c 95 7f 17 3d 16 9b 55 3d 36 db b0 3d
       0.008727829 0.036986906 0.052149855 0.08635561
0003b0 03 64 4c 3d 2c f2 bf 3c 93 e2 8c bd e0 fa 07 bd
       0.049900066 0.023430906 -0.06879153 -0.033198237
0003c0 c3 8f 05 3c 87 e5 2b 3d e3 b0 76 bd 97 f1 18 bd
       0.008151951 0.04196694 -0.060227286 -0.037339773
0003d0 fa bd c0 3c ce 90 20 bc 3e 74 83 3d 8a 98 73 3c
       0.023528088 -0.009800149 0.06418656 0.014867911
0003e0 8b 6d e1 bc 5e da 1a bd 9c 6c 3d 3a 53 71 fa 3c
       -0.027518054 -0.037805907 0.0007225962 0.030571615
0003f0 97 15 21 bd b2 6e cf bd 17 f4 99 3d 31 42 d5 3d
       -0.03932723 -0.10128535 0.075172596 0.10413016

fc1.bias f4 [50]
000000 f4 b6 84 b9 a5 be ab 3d 19 48 5a 3d c1 b3 d8 3d
       -0.00025313313 0.08385972 0.053291414 0.1058116
000010 be 08 5c 3d ac 7c 99 3b 4f 5b 99 3d c1 a7 a2 3c
       0.053719275 0.0046840515 0.07488119 0.019855382
000020 c4 62 c1 bc ca e8 6a 3d b8 d1 4b 3d ef a7 14 3e
       -0.023606665 0.05735091 0.04976055 0.14517187
000030 11 ec ca 3d a1 ca 97 3d 64 af 25 3d 94 a1 e8 3d
       0.09908307 0.07411695 0.04045047 0.113589436
000040 45 49 48 3d e1 12 3d 3d 20 b9 31 bd d7 51 1a 3d
       0.048898 0.046160582 -0.04338944 0.037675705
000050 14 3e a0 bc 2b 04 7c 3d f0 8a d9 3d dd 66 d4 3d
       -0.019560851 0.061527412 0.10622203 0.10371182
000060 03 bf 4c 3d 53 75 27 3c 18 57 ae 3c f5 2a e5 3d
       0.04998685 0.010220843 0.021281764 0.11189834
000070 a9 8c e3 3d 86 73 e1 3d 5d 4c 4e 3c 2d 28 18 3d
       0.11110813 0.110083625 0.012591449 0.03714769
000080 b8 3e 42 3d 54 a2 88 bc 2e 46 98 3c 86 e9 89 3d
       0.047423095 -0.016678967 0.018588152 0.06733994
000090 41 94 4c 3e de 45 ed 3d 35 89 03 3d ae 95 1d 3e
       0.1997843 0.11585592 0.032113273 0.1538913
0000a0 64 49 0f 3c 36 7f 28 3c aa 0b 54 3c 02 51 a5 3c
       0.008745525 0.010284236 0.012942234 0.02018023
0000b0 e0 6c aa 3c 83 c0 49 3d 28 2d ec 3d 20 92 bb 3d
       0.020803869 0.04925586 0.1153205 0.091587305
0000c0 35 08 91 3d bf 85 32 3e
       0.070816435 0.17433833

fc2.weight f4 [10, 50]
000000 12 d3 7a bd ec 61 1c be 6e b3 07 be cb 3d eb bd
       -0.06123645 -0.15271729 -0.1325204 -0.114863954
000010 9b f7 3f bd 24 f0 40 3e 7e 7b 21 3d 18 78 94 3e
       -0.046866994 0.18841606 0.039424412 0.28997874
000020 4a e9 24 3e 61 1d 32 3e e4 16 b2 bd f8 7e e2 bc
       0.16104618 0.1739402 -0.08695772 -0.027648434
000030 0f b7 0f be b2 a9 02 3e b8 d7 22 be d1 a3 9b bd
       -0.14034675 0.12760046 -0.15902603 -0.07599605
000040 bb 2a 31 3e df 3d c5 bd 4c b7 33 be be 98 64 3e
       0.17301457 -0.096309416 -0.17550391 0.22323892
000050 9e 61 c3 bc a6 b2 1b be a3 ec 12 be e3 d3 57 3e
       -0.023850258 -0.15204868 -0.14348082 0.21076922
000060 f0 38 6d bd 20 c7 6f be 85 1f 8e 3e 65 f9 01 3e
       -0.057915628 -0.23415804 0.27758422 0.12692793
000070 ec 90 0e 3e 0d ba 6e 3e c3 65 32 bd 92 16 5e bd
       0.13922471 0.2331316 -0.04355408 -0.054220743
000080 5e 85 79 3e 2c 8b a9 bd 14 0f 2b be 0a 4f 40 3d
       0.24367282 -0.08278498 -0.1670497 0.046950378
000090 98 f5 32 3e 01 f6 f0 bd de db 8a bd d8 1e 82 3e
       0.17476499 -0.117656715 -0.067802176 0.25414157
0000a0 65 17 04 be 1f 79 fb 3d 58 94 57 be 09 18 9b bd
       -0.1289955 0.122789614 -0.21052682 -0.07572944
0000b0 a0 2a 0d 3e 0f a7 39 3c 07 e2 25 be ee 62 74 3e
       0.13785791 0.011331334 -0.16199504 0.23865864
0000c0 c0 9d 8e bd d0 9f 3c 3e 7d 03 1e be 19 b4 37 be
       -0.06963682 0.18420339 -0.15431018 -0.17939796
0000d0 d5 12 64 3e e4 2e 85 be 0f 43 7b 3e 65 19 61 3e
       0.22272809 -0.26012337 0.245373 0.21982343
0000e0 6f 01 f7 3d 22 e4 8a bc 73 b4 73 3e 67 cd 25 3e
       0.1206082 -0.016954485 0.23799305 0.16191636
0000f0 e6 e2 3c 3e 12 19 07 be 6b 49 14 be 82 d0 04 3e
       0.1844593 -0.13193157 -0.14481132 0.12970164
000100 c5 bc 3e be c8 31 7c be 73 4f 30 be 1a 73 1e 3e
       -0.18626697 -0.24628365 -0.17217807 0.15473595
000110 f1 96 2f be b2 c9 a5 bd 1b 18 ff 3d 45 45 59 3e
       -0.17147423 -0.08095111 0.1245577 0.2121783
000120 f5 95 24 be 6d 9c 01 3c 9b d4 64 be 7f 7c 3e bc
       -0.16072829 0.00791083 -0.22346728 -0.011626362
000130 4d be 8d 3e 60 f8 1f be 46 31 86 be 5b 77 c4 bd
       0.2768425 -0.15622091 -0.26209468 -0.09593078
000140 45 68 53 be cb 22 38 3e eb 20 83 bd e0 09 58 3e
       -0.20645244 0.17982022 -0.06402763 0.21097517
000150 9d 05 6c 3e 14 88 35 bd 40 e6 ab be ce 84 83 be
       0.23049016 -0.044319227 -0.33574104 -0.2568726
000160 38 3a 41 3e 89 16 85 be 76 2b c5 3e 21 af 3c 3c
       0.18869865 -0.25993755 0.3850972 0.011516363
000170 03 fb 07 3d 83 b3 60 bd 4f 6c b4 3d 9b 1b 19 3e
       0.033198368 -0.054858696 0.08809721 0.14951937
000180 3a 60 53 3e 79 9e 47 be 64 90 c0 3d 89 5a 0f 3b
       0.20642176 -0.19494046 0.0940254 0.0021874032
000190 77 2e 03 3e b6 f6 91 bc 3a 89 27 be be 51 0d be
       0.12810694 -0.017817836 -0.16360942 -0.13800713
0001a0 a4 4c 29 be e0 6a b9 bd 19 34 26 be 5c 80 d2 bd
       -0.16533142 -0.09053588 -0.16230811 -0.10278389
0001b0 18 aa 38 bb c3 03 c0 bd cb 4f e4 bd e6 08 7d 3e
       -0.0028177556 -0.093757175 -0.11148032 0.24710426
0001c0 0f e8 9c be 4c 7b ef 3d 3c ce d5 bc 27 47 64 3e
       -0.30645797 0.11693439 -0.026099317 0.22292767
0001d0 2f 3c 74 3e 7a 2a 0e be cc fb da 3c 36 3d 5f 3e
       0.23851083 -0.13883391 0.026731394 0.21800694
0001e0 31 aa db bd 9a f2 0d 3e 63 52 3e 3e 92 4f 69 3e
       -0.10725821 0.13862076 0.18586116 0.2278426
0001f0 38 53 09 be ae e1 84 3e 7c 8c 27 be ee 84 0e 3e
       -0.13410652 0.2595343 -0.16362184 0.13917896
000200 ea 88 54 3e 28 ef 08 bd c8 3b 64 3e 34 f1 e8 bd
       0.20755354 -0.033431202 0.2228843 -0.11374131
000210 18 be 85 3e fb 20 c2 bd b0 dc 8c bc 31 e8 1f be
       0.26121593 -0.09478947 -0.017195076 -0.15615918
000220 9e 5c 64 3e f9 5d 25 be fe 22 06 be 85 58 bb bd
       0.22300956 -0.16149129 -0.13099286 -0.09147743
000230 66 a3 10 bc ec e9 eb 3d 41 f7 08 be f2 19 19 3e
       -0.00882802 0.115192264 -0.1337557 0.14951304
000240 4b e4 e1 bd 1c 54 b4 bd 46 9c 61 bd ab 89 39 be
       -0.110298716 -0.08805105 -0.055080675 -0.18118922
000250 1c db e7 3b 80 d2 2a 3e 3f 90 07 be 9c ef bb 3d
       0.0070756804 0.16681862 -0.1323862 0.09176561
000260 b4 15 1e 3e 97 62 36 be 5f 0a 1f be 6f 92 1f 3e
       0.15437967 -0.17811047 -0.155313 0.15583204
000270 8d f8 cd 3d da 50 8d 3e 9a 36 ca bd e1 d5 21 3e
       0.10057173 0.27600747 -0.09873696 0.15804245
000280 36 5e 20 3e ea f2 30 be 50 54 9c 3d ae 2b 05 3e
       0.15660939 -0.17280164 0.07633269 0.13004944
000290 21 cd 17 be b6 c3 21 3e eb d4 e6 3d a0 ad fb 3d
       -0.14824344 0.15797314 0.1127108 0.12288976
0002a0 39 8e 8f 3d e8 e8 25 3e 99 6b 61 be 6f 19 4b be
       0.07009549 0.16202128 -0.22013701 -0.19833921
0002b0 60 4f 8d be f7 76 18 3e e2 06 3f be 1a 52 3c be
       -0.2759962 0.14889131 -0.1865497 -0.18390694
0002c0 90 55 0e 3e d1 29 e5 3d b2 a1 30 be 00 a3 34 3e
       0.13899827 0.111896165 -0.17249182 0.17640305
0002d0 d4 8d 69 3e fa b7 1c 3e 19 99 5a be a0 36 2b 3e
       0.2280801 0.15304556 -0.21347465 0.16720057
0002e0 0d 1d 1f be ec 0e 10 be 72 c3 21 3e 74 16 7b be
       -0.15538426 -0.14068192 0.15797213 -0.24520284
0002f0 de 62 59 3e f0 25 80 bd b5 3f b2 bd 08 3a 10 3e
       0.21229121 -0.06257236 -0.087035574 0.14084637
000300 d6 2d 30 3e 4d 10 38 be 07 a7 4f 3e d1 81 16 3e
       0.17204985 -0.17974968 0.2027856 0.14697959
000310 dc 46 72 be d2 5a 1b be aa d5 66 be 7f 36 12 be
       -0.23659843 -0.15171364 -0.22542444 -0.14278601
000320 36 0a b6 bd 98 7e 04 3e 59 a9 28 be b5 f6 3c be
       -0.08888666 0.12938917 -0.16470851 -0.18453486
000330 8d 7e 0c be 2c 26 45 3e a8 a8 e0 bd 69 75 e8 bd
       -0.1372015 0.19252843 -0.109696686 -0.11350519
000340 98 ca 36 be 57 fe ad 3d 85 b0 25 3e 95 e0 8d 3e
       -0.17850721 0.08495777 0.16180618 0.27710405
000350 9b 40 a0 be e4 26 f3 3d ed 14 17 be 1e b2 65 3e
       -0.3129929 0.11872652 -0.14754076 0.22431228
000360 d8 e0 6d 3e 28 3e 04 3e 04 e0 ed bc 4d 8f 68 3e
       0.23230302 0.12914336 -0.029037483 0.22710915
000370 41 57 b8 bc db 0c 53 3e 14 ef 3a 3c 6e f5 4f be
       -0.022502543 0.20610373 0.01140954 -0.20308468
000380 6c bb 6c be dd 3c 8e 3e f5 73 2d be c4 be 0b 3e
       -0.23118371 0.2778081 -0.16938765 0.1364699
000390 2d c1 70 be b8 98 37 be bf 46 64 3e 77 93 fd bd
       -0.2351119 -0.17929351 0.22292612 -0.12381642
0003a0 11 e9 6f 3e 59 a3 1c 3e d1 32 5e be 00 b4 9c bd
       0.23428752 0.15296687 -0.21699072 -0.0765152
0003b0 53 ae 19 be 38 2c 45 be e4 54 4b 3e 39 c2 35 be
       -0.15007906 -0.1925515 0.19856602 -0.17749871
0003c0 25 eb ec bd 77 ab 11 3e e3 2c 82 bd 10 fd 14 3e
       -0.11568288 0.14225565 -0.06356218 0.1454966
0003d0 65 f9 99 bd d1 a9 1e 3e db 40 37 3e 2e 58 da bd
       -0.07518271 0.15494467 0.17895834 -0.1066135
0003e0 71 55 85 3e 43 76 27 be 80 fc 8a 3e bd ca 5b be
       0.2604175 -0.16353707 0.27145767 -0.21464057
0003f0 37 97 30 be bb f7 87 3e 5f 63 5a 3e 89 a9 6a be
       -0.17245184 0.2655619 0.2132697 -0.22916235

fc2.bias f4 [10]
000000 4e 4e 5c 3d f2 5a d9 be d1 4a 5c 3d be f4 e8 bd
       0.053785615 -0.42452198 0.053782288 -0.11374806
000010 9e 47 a8 bd 0b 1c 56 be c3 25 2e 3e ba 89 ee 3d
       -0.08216785 -0.20909135 0.17006592 0.11647363
000020 00 4d d9 3a a2 33 4f be
       0.0016578734 -0.2023454
