results/model.pth (torch_old, 88660 bytes, 8 tensors)

conv1.weight f4 [10, 1, 5, 5]
00000000: f02f 843e 376a 963e d784 c53e 3a37 4f3e
00000010: 91f3 d43e dcb8 913d 2a18 593e 66be 3c3e
00000020: 6369 8e3e d793 3c3d 8d91 2abc ad5b f6bd
00000030: 2b3e 58be a17b e8bd e7c5 b03d e629 a7bd
00000040: 4e5a 9abe c778 b13c 6b14 b1be 5d7a b93a
00000050: 4ada 63be 1026 8bbe 8dbc 9dbe 67f4 9fbd
00000060: c0b9 c0bd fae1 683e 3585 0dbe bee7 c0bd
00000070: 606f bb3d fb13 283e 36fa 603e 32d8 f9bd
00000080: 7399 75be c1d7 50be 12b0 0d3e b9e0 a63e
00000090: 4c32 56bd 9ee6 41be c3c4 e2bc 50db d1bd
000000a0: 0c88 ab3e 0763 21be c783 70be 5039 16be
000000b0: 6ba2 393d 28c1 853e b01d 803e d3d5 84be
000000c0: 193e 32bc 6a1a 11be 9e77 a83d d960 523e
000000d0: b644 d53c 1a1f 77be 47b7 81be bec9 1f3e
000000e0: 4e35 933e 8651 6abe b799 ddbd 5de4 a7be
000000f0: 4ff8 fa3d cd5f c33e af6c a43d 0d28 bcbe
00000100: 3b99 91be 4035 253e 8c11 8e3e 8e4a ae3e
00000110: 5f76 df3c 3427 673d af30 dd3d c5c4 6a3e
00000120: 1d19 b83e 3397 933e aa84 983e 0894 aabd
00000130: 9340 88be a34d 81bd 8b2a 28bc 1e63 733d
00000140: 7acf 55be eb7e 9fbd db1a 99be e8fc cdbd
00000150: b204 b8bc 9692 b8be e2cf 32be c1cd d23d
00000160: 2df7 a73e 6b9f 643e 00cb 1ebe e088 d7bd
00000170: 9dfd 593e 6bdb 2e3e ec62 98bd 3999 e2bd
00000180: 4d05 7f3e 86e1 8c3e efb4 2a3e af6c dfbc
00000190: 6e98 fb3d 7cc5 433e f203 bf3d bb8d 813e
000001a0: c596 153e c024 97bc 8949 d1bd a45a 0bbe
000001b0: b2df 3b3e 42c5 863e 91e8 b0be 4502 19be
000001c0: 1a8c 8d3b 8121 563e 644b bf3e d34c 27be
000001d0: ac4e 2abe 400c 633e 2602 c23e e711 863d
000001e0: c329 623c 3851 7d3e ca53 3f3d 661c 843b
000001f0: 4858 803e 0249 c03d a621 4bbe 1dce bdbe
00000200: d930 b8be 80a7 b2be 8a13 a0be 71e0 e2be
00000210: f89b 87be 296a 3dbe e650 e1bd 763b 0b3d
00000220: c834 d8bc 6ecb 953e a970 6f3e 2f8c c63d
00000230: afe0 ba3e 0a95 d83e ea03 473e 853c e53e
00000240: 891c ab3e a9c2 833e 7ed3 443e 4313 bc3d
00000250: d973 d4bd 16d6 603b e3a2 183e 1b97 8ebd
00000260: 86ec d53d 7413 88bd 7c30 22bc cd6d 8bbd
00000270: 278f dabd d070 6cbe 6210 1ebe be87 9fbd
00000280: 3ce1 2c3c d111 623d 894d 0e3e 5576 fe3c
00000290: 414c 8ebe 5a0b 01be 8a7b a1bd 5db1 f8bd
000002a0: a5c5 f73d 94fc a3bc 6712 ad3e b3f9 e63d
000002b0: 264f 4d3e d52d 89bc 71f8 883e 98fe 94bd
000002c0: ea34 593e 7738 97bb afaa 45be 09c3 d8bd
000002d0: 1dab 34be 6214 723e 728f 003e d612 403d
000002e0: fae1 9abd 3dd8 febd aa41 5f3e 3a2f ee3e
000002f0: 17ab b73e d158 f23d c709 a2be 8493 49bc
00000300: 8a3d 1cbc 889a 6dbc 9c6f 7d3e a546 c8be
00000310: e77a 93be 83a0 86be 7d8f 7fbd 5c66 13be
00000320: 7017 b7be 1f1d bfbe 336c 5cbe 11f8 7cbe
00000330: 524a 9c3d da09 21bd bd0d a0bd 59a5 a9bd
00000340: fad0 8ebe ecdb 1bbe 8125 4ebc 074f 27be
00000350: 3ffc 12be 3788 16be 8962 adbe 4576 183e
00000360: 0d32 cf3c 4ab8 9d3b 1ccf f03c 1990 9cbd
00000370: a62f 0d3e ce16 523e b3d2 953e f357 e3bb
00000380: eb3e 373e 407a 983e 1f1f cf3e 52d3 a33e
00000390: 93d1 1e3e c706 6b3d 8a9c c43e 00b8 3d3e
000003a0: e224 e7bd 0c40 97be 1247 4dbe de3b db3e
000003b0: 737d cebc 970f 83be 155a bfbd 713d 74bd
000003c0: cb02 3b3e 944d 38be 722f e9bd 2d5b 41be
000003d0: c0c1 64be 1e37 c53c d853 1cbe 6a24 56be
000003e0: 3788 72bd 66fa 98bd
0.25817823 0.2937791 0.3857791 0.20235911 0.41592076 0.07115337 0.21200624 0.18432006
0.2781478 0.04603943 -0.010410679 -0.120292045 -0.21117465 -0.11351705 0.08631497 -0.08162288
-0.30147022 0.021664036 -0.3458589 0.0014150847 -0.2225124 -0.27177477 -0.30807915 -0.07810288
-0.09410429 0.22742453 -0.13820346 -0.09419201 0.091521025 0.16413872 0.21970448 -0.12199439
-0.23984317 -0.20394804 0.13836697 0.32593325 -0.05229406 -0.1893563 -0.027681714 -0.10246909
0.33502233 -0.15760432 -0.23487769 -0.146703 0.04532091 0.2612393 0.2502265 -0.25944385
-0.010879063 -0.14170232 0.0822594 0.20544757 0.02603374 -0.24132958 -0.25335142 0.15604302
0.28751606 -0.22882661 -0.108203344 -0.32791415 0.12254392 0.38159028 0.08028542 -0.36749306
-0.28437218 0.16133595 0.27747762 0.34041256 0.027278123 0.05643387 0.10800301 0.22926624
0.3595666 0.28826293 0.29788715 -0.08329016 -0.26611766 -0.06313636 -0.010264049 0.059420697
-0.20879927 -0.077878796 -0.29903302 -0.10058004 -0.022463176 -0.36049336 -0.17462113 0.10293151
0.32805768 0.22326438 -0.15507126 -0.10524154 0.21288152 0.17075889 -0.07440743 -0.11064381
0.24904366 0.2751581 0.16670583 -0.027273504 0.12284933 0.19118303 0.093269244 0.25303444
0.14608295 -0.018450141 -0.10219104 -0.13608795 0.18347052 0.2632237 -0.34552434 -0.14942272
0.00431968 0.20911218 0.37362206 -0.163379 -0.16631573 0.22172642 0.37892264 0.06546383
0.013803902 0.24738014 0.046710767 0.0040317057 0.25067353 0.09388925 -0.19837055 -0.37071314
-0.35974768 -0.34893417 -0.31264907 -0.4431186 -0.26486182 -0.18497528 -0.11001758 0.033992253
-0.026392356 0.29256767 0.2338282 0.09694707 0.36499545 0.42301208 0.19435087 0.44772735
0.33420208 0.2573445 0.19221303 0.091833614 -0.10373659 0.0034307293 0.14905886 -0.06962415
0.10445504 -0.066443354 -0.009899255 -0.06808052 -0.106718354 -0.2308991 -0.15435937 -0.07789563
0.010551747 0.055192772 0.13896765 0.031062284 -0.27792552 -0.12601987 -0.07884891 -0.12143204
0.120982446 -0.0200179 0.33803102 0.11278095 0.20049724 -0.016745487 0.26752046 -0.072751224
0.21211591 -0.0046148854 -0.19303392 -0.10584075 -0.176434 0.23640588 0.1255472 0.046892963
-0.07562633 -0.12443588 0.21802393 0.46520406 0.3587272 0.11833347 -0.31648085 -0.012303237
-0.009536156 -0.014502175 0.24749607 -0.39116398 -0.28804705 -0.26294336 -0.0623927 -0.14394516
-0.3576007 -0.37326905 -0.2152565 -0.24704005 0.07631363 -0.039316036 -0.0781512 -0.08283491
-0.2789381 -0.15220612 -0.012582184 -0.1633874 -0.14354037 -0.147004 -0.3386424 0.14888866
0.02529242 0.0048132287 0.029395632 -0.07644672 0.13787708 0.20516512 0.29262313 -0.0069379746
0.17895095 0.2978077 0.4045343 0.31997162 0.15509634 0.05737951 0.3840068 0.18527222
-0.11286332 -0.2954105 -0.20046642 0.42819113 -0.025206303 -0.25597832 -0.09343354 -0.059628908
0.18262784 -0.17998344 -0.113860026 -0.18882437 -0.22339535 0.024074133 -0.15266359 -0.20912328
-0.059211936 -0.07469635

conv1.bias f4 [10]
00000000: 6712 8b3d a715 f63d 74e5 8c3d 4249 3bbd
00000010: 15fc 353e 025f b3bd 883b 8cbd f25a 95bd
00000020: 6ff3 573e b759 5d3d
0.06790619 0.120158486 0.06879702 -0.04572416 0.17771943 -0.08758356 -0.06847292 -0.07292737
0.21088956 0.054040637

conv2.weight f4 [20, 10, 5, 5]
00000000: 51a4 adbd 6da9 8dbc b59f 6b3c c5e8 513d
00000010: b67b fe3b 1862 9bbc 6c5c 0cbe 07dd 4dbd
00000020: b6c8 3abd b598 cabc 680d 35bd cdb4 f3bd
00000030: eee4 c0bd a4cf 4a3b 0a61 adbd 9c05 21bd
00000040: da78 2fbd 3d8f a43c 8a92 29bd c442 62bd
00000050: 4226 14be 9f02 2dbd 6bb2 203c 0aae 773d
00000060: ca2c 61bd c3fd 853d ecb6 42bc c948 c73c
00000070: 0d26 4b3a a8e2 4cbd 42ae 3fbc 6017 d0bc
00000080: 647d 0b3b ad97 383c c72e 59bc b2af 7a3d
00000090: e585 a3bc 6562 923d 9069 093d 4a57 90bb
000000a0: ea7c c3bc ae9c 953d 514e 943d be74 523d
000000b0: 7e4b 0ebd 395c a63c eb40 693c d69c f53c
000000c0: 41f8 83bd 3826 b2bd 4e85 d3bd d138 85be
000000d0: 7602 54be b81d 07be b6ca 0c3d 841c 21be
000000e0: 8c3f d7bd d541 3e3d 6385 c63c 0c2c 263c
000000f0: 900e 73be cc0f 75bd df97 313e f7d5 2b3d
00000100: 794b a3bd f5b4 d2bd 63e8 cf3d 41dc 393e
00000110: 8699 a23d 18ab 7dbd 07e0 9f3d 842e 823d
00000120: bace ea3d fc41 c93c 7ccb 30bd 725e 2ebb
00000130: a172 513d 67d2 9a3c 0612 e83d 6478 813d
00000140: 1e2b 093d dff9 223e 0ede d03d 0438 e33d
00000150: 2a26 193d 9e38 aa3c c55b 893d c26e 7e3d
00000160: 7850 8bbc b6d0 153d 25ef 0d3b 7b46 4a3d
00000170: 2232 2c3d a7ab 1a3c bdfe 1c3d 41fb 2f3d
00000180: 8f60 1a3d f1e0 54bc 11a2 a2bc 1566 39bd
00000190: 54f2 5dbe bef1 b2bd 3302 a83d 0191 de3d
000001a0: 9366 083e a4bd f2bd 9797 373d e9e4 053d
000001b0: 7e7c 80bd bb53 223b f2ad 7837 b5bc ca3d
000001c0: 4f60 8c3c 6fdc 85bb 7203 41bc 7678 073d
000001d0: 88bd 733d 5f74 27bd c096 5bbc 8f53 b5bc
000001e0: 7a5c 653d 5f44 19bd 4f58 163c e6fb b23b
000001f0: 6d90 aabd 1873 a6bd 8c49 f5bd 0865 ddbd
00000200: 8de5 81bc b060 f2bc b1e9 09be 94ae 75bc
00000210: 67a1 493d 261f f13c fadf e9bd 64d2 0ebe
00000220: 410d 14be 24df bcbc 7167 debc ee0f a6bd
00000230: 64cb a2bc 27da e7bd ee46 25be 69aa 233d
00000240: 46ad a63c efee cb3b 1869 0abe 8cfe 05be
00000250: d879 033d 609a 853d 28d6 77bd 0876 54bc
00000260: f469 ba3c d6c6 88bd 9db1 e83b d1e3 f53c
00000270: 40cf 483d 550e 5bbc 783d 91bd d9af f2bc
00000280: e3df 1bbd 3df5 26bd a2a0 b33c 2be4 25bb
00000290: a293 473d 0f43 563d 4d81 b5bd 1503 a4bd
000002a0: af9d adbc 9ec8 4cbd 62ef e8bc c524 84bd
000002b0: 9c05 47bc bf60 f1bc 7dac 793d 982b 72bd
000002c0: b0fb 69bd 056b 78bd 12ce 303d 9a5f be3c
000002d0: a874 56bd 1c50 5dbd 7f93 a4bd 93db 37bd
000002e0: 4cea 323d 65a7 b8bc 077c abbd 9c76 07bd
000002f0: 2571 283b b3a8 2abd c955 00bd 2759 b43b
00000300: 3bce ac3c 2d43 16bc 26e8 ab3c 26fc 56bd
00000310: f74e a33b 626c ba3d 6a7e 233d 2ff3 823d
00000320: a512 63bc d859 2c3d 353f 743d 79d5 f5bc
00000330: 66c2 5fbd 86fe 86bd 0297 6a3d b462 3b3d
00000340: bc1a 5c3b e6be f3ba 8ca5 7fbd b414 b0bd
00000350: 7262 81bd 0b37 a03c 3773 9dbc 408c cdba
00000360: 0e35 00bb 21dc 7dbd 6d23 40bd 5b17 c13b
00000370: da23 013b 5ccb 9cbc bb05 b83c 2ef2 603c
00000380: 78f7 173d 02c5 453d 03b7 92bd 7707 cbbc
00000390: d521 c6bc 1df7 6a3d 4a55 e23d 180f 9abd
000003a0: 92f5 9aba d421 823d c22a f83c 7e7c 7ebb
000003b0: dd51 3a3d a798 153e f017 b43d 3df9 933b
000003c0: c04f 67bd 2af7 16bd b54f 403d 48e5 0a3c
000003d0: 5606 c73c 8c73 8f3d 1cd4 5d3d 05d1 323d
000003e0: f6a8 98bd bae7 3d3c c90a 79bc e566 14bd
000003f0: 6e1e 78bd 6619 b43d 6028 ae3d 652a 0bbc
-0.084786065 -0.017292703 0.014381339 0.051247377 0.0077662123 -0.018967673 -0.13707131 -0.050259616
-0.04560157 -0.02473102 -0.04420224 -0.118997194 -0.09418665 0.0030946517 -0.08465774 -0.03931199
-0.042839862 0.020087833 -0.041399516 -0.055239454 -0.14467719 -0.042238828 0.009808163 0.06046871
-0.054974355 0.06542542 -0.011884432 0.024326699 0.00077495055 -0.050020844 -0.011699261 -0.025401771
0.0021284455 0.011266631 -0.0132557815 0.061202712 -0.019961307 0.071476735 0.033547938 -0.004404937
-0.023863275 0.07305275 0.072415 0.051380865 -0.034739964 0.020307647 0.014236669 0.029982012
-0.06443835 -0.08698696 -0.1032816 -0.2601991 -0.20704064 -0.1319493 0.034373008 -0.15733534
-0.105101675 0.0464495 0.024233526 0.0101423375 -0.23736024 -0.05982952 0.1734309 0.0419521
-0.0797338 -0.10288421 0.10151746 0.18150426 0.079394385 -0.061930746 0.07806402 0.063565284
0.11465211 0.024567597 -0.043162808 -0.0026606587 0.05113471 0.018899156 0.11331563 0.06321791
0.033488385 0.15915631 0.101986036 0.110946685 0.03738991 0.02077895 0.06706957 0.062117346
-0.017006144 0.036575995 0.0021657434 0.04938362 0.042039998 0.009440339 0.038328875 0.042964224
0.03768974 -0.012993083 -0.01985267 -0.04526337 -0.21674472 -0.08737515 0.082035445 0.10867501
0.13320379 -0.11852577 0.0448223 0.03268901 -0.06273745 0.0024769146 1.4822452e-05 0.09899274
0.017135767 -0.0040851156 -0.011780607 0.033073865 0.059506923 -0.040882464 -0.013402641 -0.02213457
0.055996396 -0.03741872 0.009176328 0.0054621575 -0.08328328 -0.08127421 -0.119769186 -0.10810286
-0.015856529 -0.02958712 -0.13468052 -0.014995236 0.04922619 0.029433798 -0.11419673 -0.13947445
-0.14458181 -0.02305562 -0.027148934 -0.08108507 -0.019872375 -0.11320906 -0.16140339 0.039957438
0.020346295 0.0062235515 -0.13516653 -0.13085383 0.03209862 0.06523585 -0.06050697 -0.012967594
0.0227556 -0.0667855 0.0071012513 0.030015858 0.049025774 -0.013370116 -0.07091802 -0.029624866
-0.038055312 -0.04076122 0.021927182 -0.0025313 0.048724778 0.052310046 -0.08862553 -0.080084
-0.021193353 -0.04999601 -0.02843446 -0.06452326 -0.0121473335 -0.029465077 0.060955513 -0.059123605
-0.057124794 -0.060648937 0.043165274 0.023238946 -0.052357346 -0.054031476 -0.08035945 -0.044887137
0.043680474 -0.022540757 -0.08373266 -0.0330721 0.0025702205 -0.04166479 -0.03133181 0.005503792
0.021094432 -0.009171289 0.02098472 -0.05248656 0.0049837786 0.09102704 0.03991548 0.0639404
-0.013859426 0.04207787 0.05963059 -0.030009018 -0.054628752 -0.06591515 0.05727292 0.045748428
0.003358527 -0.0018596321 -0.062413737 -0.08597699 -0.06317605 0.019557497 -0.019219978 -0.0015682057
-0.0019562873 -0.06197751 -0.046908785 0.0058926768 0.0019705207 -0.019139938 0.02246367 0.013729615
0.03710124 0.048283584 -0.07163813 -0.024783833 -0.024186054 0.05736457 0.11051424 -0.0752241
-0.0011822453 0.063541085 0.030293826 -0.0038831527 0.045488227 0.14609013 0.08793628 0.0045157955
-0.05647254 -0.036856808 0.046951015 0.0084775165 0.024295013 0.07004461 0.05415736 0.043656368
-0.07454102 0.011590892 -0.015200325 -0.03623094 -0.060575895 0.08793907 0.08503795 -0.008493994

conv2.bias f4 [20]
00000000: 255c a7ba 6f36 fc3c b320 8dbc 6139 a1bd
00000010: 2b50 d13c 26cf 53bb 1fd3 0d3d 8d71 443d
00000020: 8488 ccbc ddeb 7d3c 995c 873d e900 a43b
00000030: e7b7 afbc a2e7 743d 2be9 55bd 9551 4fbd
00000040: 1298 c93c ab78 fabc dcc4 443c d206 233d
-0.001276855 0.030787675 -0.017227506 -0.07872272 0.025550922 -0.0032319515 0.03462517 0.047959853
-0.02496744 0.015498129 0.066094585 0.0050049913 -0.021449996 0.059791215 -0.05222432 -0.050614912
0.024608646 -0.030575117 0.012009826 0.039801426

fc1.weight f4 [50, 320]
00000000: 9fbf 513d f1aa 253d 3132 c33d b573 833d
00000010: d4b2 f03b 69c6 70bb 377f 3bbc 9516 1fbd
00000020: 9d4c 4bbd 927a f2bc bf91 d63d 9315 5bbc
00000030: 8572 04bd f780 adbd 7b7f 503d a82b 54bd
00000040: 9b75 3bbb 2e39 88bd d9e7 763d 517d 523d
00000050: f729 9ebd 864a b4bc cade c63c 0b8a cd3b
00000060: aa92 7cbc 79c3 83bd 67d1 683b 643b 83bc
00000070: 6ce7 6ebd b592 94bc 263b 83bd 4a7b 363d
00000080: a62b e5bc 6c76 b1bd ca75 93bd e5df 153d
00000090: 46db 66bd 5ede bebc 9bb8 9b3c a6b2 083e
000000a0: a739 11bd e6b6 143d 7dd6 a63c 218e 843c
000000b0: b7f3 11bd a6b9 99bd 530a 423d c182 6ebd
000000c0: bf56 353d e721 c9bc c805 25bd 298d de3c
000000d0: 5b65 4c3d 26da 8e3c ab22 1cba 3fd2 e83b
000000e0: 5d78 493d ead8 f8bc d141 34bc b526 9b3b
000000f0: ff60 4c3d db69 abbb dcdc 313a 88a8 913c
00000100: 163b f6bc bcba a63c eaee c4bd e570 5cbd
00000110: 9365 16bd 6b4b d63d 8b59 11bd e569 be3d
00000120: f8ce bebd 3a8d 113d d996 a53c 3d45 0cbd
00000130: 97eb c0bd bffd 37ba c026 3cbc 10e6 af3c
00000140: 96a6 4cbd efae 053d 48d0 7a3d 650b ac3d
00000150: b24e 8d3c 857d 933c 2802 39bc 17b6 0abd
00000160: be09 1c3c 3346 623d 9cdf 8dbd 50a0 17bc
00000170: 1088 1e3d a535 863d 96ea 803d b97e 3b3c
00000180: e365 ba3c 46cd d8bb b1ff bf3d 2e55 653c
00000190: abca 8b3c 0712 acbc a262 94ba 8964 e5bd
000001a0: 2f65 0e3b 49fc 803b 5553 8c3d 00e4 79bc
000001b0: b459 96bd b66b 87bd 7f3e 23bc 437f 833c
000001c0: 1bae c2bd 5eaa f73c 4a33 1fbd a96a fbbd
000001d0: 49f9 9ebb f8a0 feba 2c89 14bc 6b1c 8c3d
000001e0: 2d1a 063d d067 56bd 0a59 8bbb 3ef3 903b
000001f0: c46e ebbc ddc1 e33c 0ff2 2c3b a063 87bc
00000200: cd45 14bd e944 9a3d d63f fc3c 0c95 ef3c
00000210: e7c5 ccbc 0305 753b f365 f6bc c7bf 22bc
00000220: 4132 12bc f561 183d 97f3 313d a742 c6bc
00000230: 8aa7 6f3c 5cf7 d23b e4a3 76bc 2d70 8e3c
00000240: 4604 dfbb 3019 aa3c 01ae d43c ae3a 57bc
00000250: d0b9 453d 04f0 733c 786d b8bb f9c3 083d
00000260: 88d4 31bd cf47 053d 09e9 dcbc 1245 153d
00000270: a12c 9cbd 81ea 533d 8c31 28bd e2f0 823b
00000280: 776d 3dbd 9bef fc3b f724 fbbd 131a fe3a
00000290: c5b4 19bd c4de debd a3f0 e7bd f579 b33c
000002a0: 58cc a1bd 4c42 d03b 3f37 4f3d acb3 d2bc
000002b0: b8e8 823c 880c a03d aeb7 c6bc f0d3 0fbc
000002c0: dd21 d9bd 71e4 68bd 2a71 b3bd 323b 83bc
000002d0: 772f f7bd 58e4 f33b 3934 9f3c 4c8d 74bd
000002e0: 89a4 d4bc 3976 843b 3305 9abb 3fb6 91bc
000002f0: 701e 09bd e494 b23c c0c7 af3d 1fd7 3fbd
00000300: 1764 52bd c619 6bbc cbcd b2b9 7b31 3d3c
00000310: 5e9e 383d 25f4 3d3c 276f 2d3d 97c1 bdbd
00000320: 7979 a03c b81a 99bc a25c 043d 185c 47bd
00000330: 11d5 b6bd eb3b e4bb 5b01 873b 0326 90bd
00000340: e1e4 de3c 4d08 3a3d 9781 b73d 311f 53bd
00000350: 09c0 e8bb a8ec db3c 4bc5 ef3c cde2 393c
00000360: 90c6 3a3d 25e2 2abd eaf7 a93b d1ce 88bc
00000370: 81b6 973c 7da9 ba3c 1478 d2bb 9583 21bd
00000380: 98c5 8c3c ef2d 82bd 3f96 a2bb f96f dabc
00000390: e7ce d1bb da28 8cbd 7ead 0f3c 0ca3 703d
000003a0: d667 7dbd 7a44 cabc 2291 2a3c d73f 17bc
000003b0: b013 fdbc 8976 843b 3f8a a53c 6b88 89bb
000003c0: 2abc 1ebd d9c1 38bd 2134 64bd c98b 883c
000003d0: 34ea e3bd 9c66 86bd 2db7 f8bc a30e 753d
000003e0: 2ab2 b6bd 2408 b4bc 8e19 da3c 1edf febb
000003f0: 1981 57bd 0ce1 313d 4518 793d fc7e 323d
0.051208135 0.040446226 0.095310576 0.06418554 0.0073455367 -0.0036739355 -0.011443905 -0.038839895
-0.04963361 -0.029599462 0.104770176 -0.013371843 -0.032335777 -0.08471864 0.050902825 -0.051799446
-0.0028604034 -0.06651531 0.0602797 0.051389042 -0.07722848 -0.022008192 0.024276156 0.0062725595
-0.015415827 -0.06433768 0.0035525204 -0.01601953 -0.05832617 -0.018136362 -0.06407766 0.04455117
-0.027974915 -0.08665165 -0.07200201 0.036590476 -0.05636146 -0.023299392 0.019008925 0.13349399
-0.035455372 0.036307238 0.020365948 0.016181054 -0.035632815 -0.07506113 0.047373127 -0.058230165
0.04427218 -0.024552299 -0.040288717 0.02716692 0.049901348 0.017438006 -0.00059560937 0.0071051414
0.049187053 -0.03037687 -0.01100202 0.004734839 0.04989719 -0.005231125 0.0006784925 0.017780557
-0.030057471 0.020352714 -0.09615882 -0.053818602 -0.036717962 0.104636036 -0.035485785 0.092975415
-0.0931682 0.035535075 0.020213531 -0.03424572 -0.09419935 -0.0007018707 -0.011483848 0.021472007
-0.049963556 0.032637533 0.06123379 0.08400611 0.017249439 0.018004188 -0.011292018 -0.03386506
0.009523807 0.05524273 -0.06927416 -0.00925453 0.038703978 0.06553201 0.06294744 0.011443787
0.022753661 -0.0066162674 0.09374941 0.013997359 0.017064413 -0.02100469 -0.0011320899 -0.11200816
0.002172779 0.0039363247 0.06851832 -0.015252113 -0.07341328 -0.06612341 -0.009963631 0.016051894
-0.09505864 0.030232605 -0.038867272 -0.12276203 -0.0048514945 -0.0019426635 -0.009065907 0.06841358
0.032739807 -0.052345097 -0.0042525576 0.004423528 -0.02873934 0.027802402 0.0026389395 -0.016526997
-0.03619938 0.07532675 0.030792158 0.029245876 -0.024996711 0.003738702 -0.03007791 -0.009933419
-0.008923114 0.037202794 0.043445196 -0.024201704 0.014627347 0.006438179 -0.015053723 0.017387474
-0.0068059294 0.020763963 0.025961878 -0.013136549 0.048272908 0.014888767 -0.005628284 0.03339002
-0.043415576 0.032539185 -0.026966589 0.036442824 -0.076257 0.051737312 -0.041062877 0.0039960006
-0.046246972 0.007718993 -0.1226291 0.0019386433 -0.03752591 -0.10882333 -0.11325195 0.02190874
-0.079003036 0.0063555595 0.050589796 -0.02572044 0.01598011 0.0781489 -0.024257507 -0.008778557
-0.10602162 -0.056858484 -0.08761819 -0.016019437 -0.120696 0.007442992 0.019434081 -0.059705064
-0.025957363 0.0040424136 -0.004700327 -0.017787097 -0.033476293 0.021799512 0.08583021 -0.046836015
-0.051364984 -0.014349407 -0.00034104133 0.011547442 0.045072906 0.011593853 0.04234233 -0.0926544
0.019589173 -0.018689498 0.032314904 -0.04867181 -0.08927358 -0.0069651506 0.0041200346 -0.070385
0.027208747 0.045418072 0.08960264 -0.05154342 -0.0071029705 0.026846245 0.029268881 0.011345577
0.04559952 -0.041719574 0.0051870244 -0.01670018 0.018519642 0.022785896 -0.006423006 -0.039432127
0.017184064 -0.063564174 -0.0049617584 -0.02666472 -0.0064028385 -0.06843729 0.008769391 0.058749244
-0.061866604 -0.024690855 0.010410579 -0.009231529 -0.030893177 0.004042451 0.020207522 -0.0041971705
-0.038753666 -0.045106743 -0.055713776 0.016668217 -0.11128655 -0.0656254 -0.030360783 0.05982841
-0.08920701 -0.021976538 0.026623514 -0.0077780625 -0.05261335 0.043427512 0.06081416 0.043578133

fc1.bias f4 [50]
00000000: c051 ee3b eb02 d2bc e888 59bd fb01 cf3c
00000010: 151c 533d da02 1e3c 5743 a33c 8691 013d
00000020: d450 7e3d adfb 743d 5608 873d b0f5 163d
00000030: a635 583d 07e2 dc3a cee4 e4bc 9a15 a5bc
00000040: e0fb 5dbb e601 8d3d edcf 1b3c e6ed 253d
00000050: 29ab 0b3d 30a0 7e3d 7607 633c 33b6 843d
00000060: 504d cabc 6a9b 083b d79c 213d a3b0 30bc
00000070: d258 f6bc 6ae5 b7bc 7be2 28bc 37d0 babc
00000080: cb14 c73c 4b38 243d be4f d03c c4df cb3b
00000090: 3f4e 803d 0b7d a83d c659 c63c 27c5 d23c
000000a0: a6fe 163c 9f0f d43c 0073 44bb 8a58 3c3c
000000b0: 3c2c c03d 75dd 613c 5e95 123d 6f3a cb3c
000000c0: b70a 213d 5047 4a3d
0.007272929 -0.025636157 -0.05310908 0.025269499 0.051540453 0.009644235 0.019929571 0.031632923
0.062088802 0.05981033 0.06593387 0.0368554 0.052785538 0.0016852029 -0.027941134 -0.020151902
-0.0033872053 0.06885128 0.009510023 0.04051008 0.034098778 0.062164485 0.013856759 0.06480064
-0.024695069 0.0020844587 0.039456215 -0.010784301 -0.03007165 -0.02244826 -0.010307903 -0.022804363
0.024301907 0.040092748 0.025428649 0.0062217433 0.06264924 0.08226975 0.02421273 0.025728775
0.009215986 0.025886355 -0.0029975772 0.011495719 0.09383437 0.01378571 0.03578698 0.024808137
0.03931686 0.049384415

fc2.weight f4 [10, 50]
00000000: 5f18 0cbd ca64 e83d ae6c 393e 38a9 203e
00000010: 3ddc 933e 9632 08be da6b 3cbe 49e3 9ebd
00000020: 9065 a6be bf80 463e 6959 19be 19ea 1bbe
00000030: f1e8 17be 66a2 95be 6997 6ebe 1e8f 783e
00000040: b4f8 e8bd 612f 443e c9ee 3fbd cb3e 1e3e
00000050: dc9f 963d 7f67 74be b044 45be e045 923d
00000060: d804 6b3e 2a89 6e3d 0b57 cdbc fddd 05be
00000070: f2d4 cb3d fde3 403e ff85 19be 2ee5 3cbe
00000080: 0244 3c3e 42f0 3b3c 23b4 1f3e 5268 0bbe
00000090: b1b4 32bd c158 83bd bba1 79be c066 a83d
000000a0: 7226 96bb 8d06 14be 09af 663e 8173 21be
000000b0: c451 4cbe f2ff 8f3e 0dac e6bd bd0d 63be
000000c0: eb6e 373e 7acc 0c3e cf31 883e 34dd 90be
000000d0: 75e2 4fbd ed94 e7bd 0de6 23be f979 10be
000000e0: e5b2 3abe 062e 483e bfa8 a1bd d3a4 4bbe
000000f0: d93d 7b3e fb31 563e 1c9e 843e 8b46 403e
00000100: c0dd 2dbe d9d4 6f3b 31a9 013e 677c 3fbe
00000110: 82e3 fcbb 05c0 04be da9e fbbc 44d7 0e3e
00000120: 8666 123e 549c 963e d204 cabd be30 333e
00000130: 4fb2 0ebe 0cd5 603e 3b5f b7bd 456e 2bbe
00000140: 4947 403e 5c18 09be 85c1 d4bd bebf 03be
00000150: b359 e0bd f33e 3abe bc12 403e fdc5 ea3e
00000160: 7d5c 723e 9385 77bd 0992 56be e8dd f23d
00000170: f880 85bd de7f 783d f5ce 633e 004c 16be
00000180: a819 80bd 6cee 1cbe 830d 8abd 1b4d b0bd
00000190: 8a2b 5c3a 368a c9bd 3ff5 ed3c cbc3 333c
000001a0: a24b 27be de92 5d3e 8fd7 183d 3dbc 6c3e
000001b0: 1d57 92be ccb6 da3b 0741 5ebd 889d 01be
000001c0: 5ca3 673e e2bb 60be c4bf 88bd 314f 4e3e
000001d0: 3997 333e 6600 453e 3044 09be 8e6d 753d
000001e0: 001f 1a3d 9246 5dbe ecc7 8dbe 6646 2cbe
000001f0: 2fe4 243d 4540 653e 8ea8 1a3e 43cb 5b3e
00000200: 5745 2d3e 6d9e 2e3e 0c0f a1bd 7572 1ebd
00000210: 6f57 febd 2c0d 503d f5e5 88bd e9d5 02be
00000220: d096 213e b065 9f3d 6627 08be 72ad 1fbe
00000230: 311e 54be e16a 303e 7fc9 4c3e 5767 b13c
00000240: c50d 6a3e 6828 2bbe 4e51 443e a7ec 29bd
00000250: 3a27 02be a792 103e 14d6 7fbd 3d0e afbd
00000260: 6ba7 303e 5147 3f3e f676 1fbe 2e23 e93d
00000270: 5266 5fbd ae8c 653e 6390 f13d 39cf b1bd
00000280: 0227 5bbe ff65 5abe c8fc 66bd 7a32 533e
00000290: 89f3 833e 6110 11be 179f 353e 42a3 d7bd
000002a0: 67f6 fdbd fc7b 203e a7fb f23c 5988 ffbd
000002b0: 097f 44be 0c82 74be 8b90 01be 2e28 413e
000002c0: ae19 1cbe 2caf 04be 2913 1a3e 44fd f7bd
000002d0: 4401 0ebe b30a 573e 7952 96bd 23da fcbd
000002e0: 9325 1fbe 3a7b e7bd dc94 603e 897f bcbd
000002f0: d758 753e a72b b7bd 37d7 d3bd ba40 7e3d
00000300: ef66 bcbd 61a7 733e 0c71 c3bd c520 c4bd
00000310: 4cfe 0b3e cc0d e0bc f0c6 54be d6bb 173e
00000320: b978 f43c 7b68 83be c4f3 3f3d 936a 5cbe
00000330: 95eb d0bd 30dc 463e 6318 983e 9962 babd
00000340: b696 163e a457 23be 4949 4d3e dcfb 533c
00000350: 3fd1 e03d 61e1 9d3c 1d4e 843e d89f 963b
00000360: b71d 4fbe b691 473e 13bf 733e f241 5cbe
00000370: 2a66 9aba a81d 0c3e 37cc 023e 1bd1 05be
00000380: d337 65bd 73ad 8bbe c6ea 1fbe 8cf9 613e
00000390: 5e64 08be 5834 453e 92ed 753e c523 e2bd
000003a0: c672 6b3d cb4a ae3e 12cd 4abe e3bc 3a3e
000003b0: 4eab f0bd 1e65 3abd e07b 713d cf6b 01be
000003c0: 0578 e3bd d0fa e53d 84ed 8cbd 5836 5bbd
000003d0: abaf b7bd 3a47 a6bd b3fe 21be a70e 713e
000003e0: 2881 b0bc 05df 86be a9b6 f5bd d013 1d3e
000003f0: 4978 90bd 62e8 303e e078 0abe 9930 46be
-0.03420293 0.11347349 0.18107864 0.15689552 0.28878966 -0.13300547 -0.18400517 -0.07758195
-0.3249936 0.1938505 -0.14975514 -0.1522602 -0.14834954 -0.29225463 -0.23299946 0.24273345
-0.11375561 0.19158699 -0.046858583 0.15453641 0.073547095 -0.23867606 -0.19264483 0.07142234
0.22951066 0.05823628 -0.02506592 -0.13072963 0.099527255 0.1883697 -0.14992522 -0.184468
0.18385318 0.011470856 0.1559606 -0.13614014 -0.043629352 -0.06413413 -0.24378102 0.08222723
-0.0045822198 -0.14455624 0.22527708 -0.15766717 -0.19953066 0.28124958 -0.11263285 -0.2217321
0.17913406 0.13749877 0.266005 -0.28293765 -0.050753076 -0.11307702 -0.16005726 -0.14109029
-0.18232305 0.19548807 -0.07893514 -0.19887094 0.24535312 0.20917504 0.25901878 0.1877691
-0.16979122 0.0036595373 0.12662198 -0.186998 -0.0077175507 -0.12963875 -0.030715395 0.13949305
0.14296922 0.29416144 -0.09864201 0.17499062 -0.13935207 0.21956271 -0.08953711 -0.16741283
0.18777193 -0.13388199 -0.103884734 -0.12866113 -0.10954609 -0.18188076 0.18757147 0.45854178
0.23668094 -0.06043012 -0.20954145 0.118587315 -0.065187395 0.06066882 0.22246917 -0.14677429
-0.062548935 -0.15325326 -0.067408584 -0.08608457 0.0008398822 -0.09840815 0.029047607 0.010971974
-0.16337445 0.21638057 0.037314948 0.23118682 -0.28582087 0.006674623 -0.054261234 -0.1265775
0.2262091 -0.21946672 -0.066772014 0.20147397 0.17538156 0.19238433 -0.13404918 0.059918933
0.03762722 -0.21608952 -0.2769159 -0.1682373 0.040256675 0.22387798 0.15103361 0.21464257
0.16920982 0.17052622 -0.07864198 -0.038683373 -0.124190204 0.05079381 -0.06684486 -0.12776913
0.15780187 0.07783067 -0.1329628 -0.15593508 -0.20714642 0.17228271 0.1999874 0.021655722
0.22856815 -0.16714633 0.1917164 -0.041485455 -0.12710276 0.14118443 -0.06246002 -0.085476376
0.17251365 0.18679549 -0.15572724 0.11383663 -0.05454094 0.22416946 0.11795118 -0.08682103
-0.21401599 -0.21327971 -0.056393415 0.20624724 0.2577174 -0.14166404 0.17736469 -0.10529186
-0.12400513 0.15672296 0.029661013 -0.12477178 -0.19189085 -0.23877734 -0.12652795 0.18862984
-0.15244171 -0.12957448 0.15046372 -0.121088535 -0.1386767 0.21000175 -0.07339949 -0.12346294
-0.15541677 -0.113028005 0.21931785 -0.09204013 0.23959671 -0.08943873 -0.10343783 0.062073447
-0.091993205 0.23794319 -0.09543046 -0.09576563 0.13671225 -0.027350329 -0.20779014 0.14817747
0.029842721 -0.2566565 0.046863332 -0.2152503 -0.10201184 0.19419932 0.29706106 -0.09100837
0.14705929 -0.15951401 0.20047487 0.012938466 0.109774105 0.019272508 0.25840846 0.0045966916
-0.20226179 0.19489178 0.23803358 -0.21509531 -0.0011779715 0.13683188 0.12773214 -0.13068049
-0.05596144 -0.2728077 -0.15616903 0.22067851 -0.13319537 0.19258249 0.24016407 -0.11041979
0.057482503 0.34041438 -0.1980479 0.18236117 -0.11751424 -0.04550659 0.058956027 -0.12638782
-0.11106876 0.11229479 -0.0688124 -0.053518623 -0.08969053 -0.08119054 -0.15819816 0.23540746
-0.021545961 -0.26342025 -0.1199773 0.15339589 -0.070541926 0.17276147 -0.13522673 -0.19354476

fc2.bias f4 [10]
00000000: b3fc b03d 4033 ca3d 7693 e1bd 14f3 d43d
00000010: 99e9 4f3d 15aa 383d 43a6 1cbe 1985 f93d
00000020: ea0c 833d b7b1 9cba
0.086419486 0.098730564 -0.11014454 0.10397926 0.050759885 0.045084078 -0.15297799 0.121835895
0.063989475 -0.0011954819
